dueling_q_network.pth (torch, 152098 bytes, 11 tensors)

feature_layer.0.weight f4 [128, 25]
000000 a1 8e 1e be 6d 4e 17 3e 35 25 c0 bb a1 ff aa bd
       -0.15484096 0.14776011 -0.0058638104 -0.083495386
000010 bc 7e fc be ca 37 c7 bc c6 db 40 c0 30 c3 e5 bd
       -0.4931544 -0.024318594 -3.013414 -0.1121887
000020 13 bb 04 3f 2e 94 aa 3d 0e 70 e8 3d 04 ce 43 3f
       0.5184795 0.08329044 0.11349498 0.7648623
000030 f6 5b aa be 24 01 15 3f cd 52 a8 3c ff 96 0d 3e
       -0.33273286 0.58204865 0.020547295 0.13827132
000040 99 07 50 3b 00 f4 ac 3e 00 98 c8 3e f6 63 1d bf
       0.003174281 0.33779907 0.39178467 -0.61480653
000050 71 63 cb 3d a0 e1 33 3e 89 ac ad bd 55 93 a2 3e
       0.09931076 0.17566538 -0.08480174 0.3175303
000060 73 88 cc bd e8 cb cc bc f4 a8 2d bd d0 f3 24 bc
       -0.09986963 -0.024999574 -0.042397454 -0.010067895
000070 90 e4 ec bd 6d 7f 12 3e 43 fa 0d be 63 aa ea bd
       -0.11567032 0.14306422 -0.13864999 -0.1145828
000080 00 61 16 be 98 b6 17 be 25 5b 19 3e 4c d5 6a bd
       -0.1468544 -0.14815748 0.14976175 -0.057332322
000090 c2 13 82 3d 00 30 06 3c af a0 3e 3e 6a be 9e 3d
       0.06351425 0.008190155 0.18615983 0.07751162
0000a0 ac e9 01 be 20 ad 35 bc a3 38 d2 bd 80 e0 e9 bd
       -0.12686795 -0.0110886395 -0.10264709 -0.11419773
0000b0 b0 d4 4b be 8a 15 c4 3d c0 6e e9 bc f6 51 b8 3d
       -0.19905353 0.09574421 -0.028495193 0.09000008
0000c0 80 99 b1 bd 7b 35 2e 3e 85 36 1a 3e c5 41 58 3e
       -0.08671856 0.17012589 0.1505986 0.21118839
0000d0 10 d0 9b be 62 d7 b8 bd 49 d2 95 bf fc eb 23 3e
       -0.30432177 -0.09025456 -1.1704799 0.1600799
0000e0 1f a0 82 3d 0f a3 c3 be 66 ef 31 3e 48 a0 17 3f
       0.06378197 -0.3821034 0.1737648 0.59228945
0000f0 20 06 3e 3d 41 4f 1d 3f 3b ad cb be 2b a5 8d 3c
       0.04639256 0.61449057 -0.39780602 0.017290672
000100 e1 3f b1 3f 66 11 1f be 84 5f e9 bd c3 22 f7 be
       1.3847619 -0.1553398 -0.11395171 -0.4826871
000110 c4 a4 04 bf b4 50 d6 3e 95 44 0f be 3c 6a 42 3e
       -0.5181391 0.41858447 -0.13991006 0.18985838
000120 8f 98 ed 3e d1 15 68 3e 62 70 f9 bd 33 b0 39 be
       0.46405455 0.22664572 -0.121796384 -0.18133621
000130 d6 4b a0 bd cb 67 35 be c3 98 22 be 0a c5 24 be
       -0.078269646 -0.17715375 -0.15878586 -0.1609079
000140 7f 30 2a be 58 e0 eb 3d 5b 46 d5 3d e8 7d f3 3d
       -0.16620062 0.115173995 0.1041381 0.11889249
000150 a8 cc 18 3d e6 4d 3e 3e e4 76 5c 3d 4a 0f 87 3d
       0.03730455 0.18584403 0.05382432 0.06594713
000160 7a 9b e6 bd 20 cb 56 3c 9b 9f b8 3d 1b 8b 81 bd
       -0.112601236 0.013109952 0.09014817 -0.063253604
000170 61 c2 33 3e 2c 04 97 bd c3 3c 42 be bf 08 97 bd
       0.17554618 -0.073738426 -0.18968491 -0.07374715
000180 64 9d 27 bd 78 e2 66 bd b6 f1 6c bd 83 6f 0d 3e
       -0.040921584 -0.05636832 -0.0578477 0.1381207
000190 fe 18 ad 3d 28 be 07 be 0e 36 24 be 04 7e ee bd
       0.084520325 -0.13256133 -0.16036245 -0.11645129
0001a0 af a7 d3 3d 83 3b 44 be 96 f8 46 be 37 05 ce 3d
       0.103347175 -0.19163327 -0.19430766 0.100595884
0001b0 5a 42 9b 3d b4 f5 fc 3d 31 67 24 3e c2 dd 3b be
       0.07581015 0.12351552 0.1605499 -0.18346313
0001c0 66 39 e6 bd 13 e8 36 3e 26 d6 ad bc e4 ab 0c be
       -0.11241417 0.17861967 -0.021220278 -0.13737446
0001d0 9d 3c 1a 3e ec 20 14 be 89 11 82 3d ae 3d bf bc
       0.15062185 -0.14465684 0.06351001 -0.02334484
0001e0 8c 72 3c 3d 7d 11 a6 bd b8 80 36 3c 0e 2b 02 3e
       0.046007678 -0.081088044 0.011139087 0.12711737
0001f0 f5 af 22 3d 2c 66 43 3e 31 e9 95 3d fb 48 0d be
       0.039718587 0.19081944 0.07319868 -0.13797371
000200 e3 2a 20 3e 95 e8 e2 bf d9 f5 d0 bb 4a a9 1c c0
       0.1564136 -1.7727228 -0.0063769636 -2.4478326
000210 f9 f5 0a 3f c0 9c 05 bf 5e c4 81 3e ca 81 3d be
       0.54281574 -0.52192307 0.2534513 -0.18506542
000220 a7 02 49 bf a9 a5 12 be 39 80 28 bf 36 57 08 40
       -0.7851967 -0.14321007 -0.6582065 2.130323
000230 06 87 42 3e 4d 86 94 3e e7 78 41 3e 85 b9 1d be
       0.1899682 0.29008713 0.18893777 -0.15402801
000240 b7 c8 f7 3f 1a b2 f2 bd b0 8d 56 3e 96 4b 4f bd
       1.9358128 -0.118503764 0.20952487 -0.050609194
000250 b7 a0 85 3d af 65 13 3f e7 b9 f2 bd 83 ca 9c bd
       0.065247945 0.5757703 -0.11851864 -0.076558135
000260 bb 70 23 3e d8 47 f0 3c 30 01 35 be 80 25 02 bc
       0.15960972 0.029331133 -0.17676234 -0.007943511
000270 a0 74 cb bb a0 d3 d3 bb 2a 27 a8 bd 02 ac b2 3d
       -0.006208971 -0.0064644367 -0.08210595 0.08724214
000280 66 9c cc 3d 3b 09 0f be 40 ef fe bc 1d 07 b0 bd
       0.09990768 -0.13968365 -0.031119943 -0.08595107
000290 23 c9 e2 bd 1a be 97 bd f3 95 43 be 00 b4 fb b9
       -0.1107352 -0.07409306 -0.1910017 -0.0004800856
0002a0 12 17 81 3d 20 cc 18 3d a0 cf 58 bd 10 f4 da bd
       0.063032284 0.037304044 -0.05293238 -0.106910825
0002b0 43 c8 bd bd 80 42 22 3b 93 cb 06 3e 9a 49 d3 3d
       -0.092667125 0.0024758875 0.13163595 0.10316773
0002c0 7b 8e ea bd 7f a5 51 3e 74 a3 90 bc eb bc bb be
       -0.11452957 0.20473288 -0.017656066 -0.3666757
0002d0 cf 51 51 3e c2 62 40 40 56 df 8c 3d 3f e4 43 3f
       0.20441364 3.0060277 0.068785354 0.7652015
0002e0 36 86 f9 3e 71 d0 c1 bd c8 32 37 bd 3a 27 17 3e
       0.48735207 -0.09463585 -0.044726163 0.14761057
0002f0 60 6a cb 3e ab 4e 4a 3f c2 c6 53 3d ef 83 75 bf
       0.39729595 0.7902629 0.051703222 -0.9590444
000300 fe a7 c9 3c f3 31 b3 be 28 aa a2 3f 96 4d f8 bd
       0.024616238 -0.34999046 1.2708178 -0.12124173
000310 7c 09 9a 3e de d2 8b bc b8 b3 67 3d fc e6 4f 3e
       0.3008536 -0.017068323 0.056567878 0.20302957
000320 cd 3c f0 3d d8 79 70 be ea 4c 14 3f 2d 49 8c 3e
       0.11730347 -0.2348398 0.5792986 0.2739958
000330 68 16 62 3e cd a5 d5 bd 8e c3 a0 3f 5d b6 d8 bc
       0.2207886 -0.104320146 1.2559679 -0.026454145
000340 a2 bf 32 3e 08 c3 99 bf f4 f1 77 3d 56 33 de 3d
       0.17455915 -1.2012644 0.06053348 0.10849635
000350 6b f6 74 3e 3a d9 e3 be 1b 77 18 3f 61 e4 00 3e
       0.23922126 -0.44501668 0.5955674 0.1258712
000360 8a 4a 1e bf d5 cf bd be 04 46 06 bf eb 5f 67 bf
       -0.6183249 -0.37072626 -0.52450585 -0.90380734
000370 b4 4b 4b be cd 8d 8c 3e 46 2d 9a bb 3a 2b 3f bd
       -0.19853097 0.27451935 -0.004705104 -0.046672083
000380 8f dd b1 be c6 af d0 3d 55 4d 19 be f5 91 8e 3d
       -0.34739348 0.10189776 -0.14970906 0.06961433
000390 b0 ad 60 be 4e 64 1d 3e 95 d0 fd bc 6b 59 03 3e
       -0.21941257 0.15370294 -0.030983249 0.12827079
0003a0 60 33 8c 3c 0f 07 6f 3e 4f 0b 27 3f 3a 1d a0 3d
       0.017114341 0.23342536 0.6525163 0.078180745
0003b0 66 d7 a8 3f 29 34 a9 3f f8 c8 0f 3f 37 69 b0 3f
       1.3190734 1.3219043 0.5616603 1.3782109
0003c0 3c 56 97 ba 57 98 04 be 89 ed 59 3c b6 c2 a7 be
       -0.0011546086 -0.12948738 0.013301262 -0.3276574
0003d0 10 84 97 3e 10 0f d4 bd dc 3e cd 3d 99 81 b8 3d
       0.29592943 -0.103544354 0.10021755 0.09009094
0003e0 90 13 21 be 2f c7 94 bf 1f cd fb 3d 25 a7 26 bd
       -0.15730119 -1.1623286 0.12294983 -0.040686745
0003f0 91 66 c9 3d 34 b1 40 3e c6 b3 83 bf b8 c7 88 3d
       0.09834016 0.18817598 -1.0289237 0.06678718

feature_layer.0.bias f4 [128]
000000 06 19 25 be 8c 07 10 bd be 1c 13 be 6a 48 77 bc
       -0.16122827 -0.035163447 -0.14366433 -0.015092948
000010 5e 49 63 bc 44 d0 37 be 36 de 0c be c5 e6 a9 3d
       -0.013872473 -0.17950541 -0.13756642 0.08295969
000020 d2 fa a7 bd a5 f7 ce 3d f4 e3 47 bd ba 62 3a be
       -0.08202137 0.10105828 -0.048801377 -0.18201724
000030 0a 9b a3 bd 58 47 17 3e b8 1e 4d bd 7a d5 05 3e
       -0.07988556 0.14773309 -0.050078124 0.13069716
000040 09 ab 10 be f6 19 cc 3d f7 06 cc bd 0a e1 15 be
       -0.14127745 0.09965889 -0.09962266 -0.14636627
000050 0b f4 0e be c9 b9 af 3c d7 54 2e 3e 20 7d a3 3d
       -0.13960283 0.021450894 0.17024551 0.0798285
000060 a3 0f 4b be 07 03 0c 3e 71 d2 46 be 33 fa 9d bd
       -0.19830184 0.1367303 -0.19416215 -0.07713737
000070 ff 70 21 be b9 3e 15 3e be 33 ed 3d 30 5b 30 bc
       -0.15765761 0.14574708 0.11582135 -0.010763928
000080 23 51 83 3d 40 24 45 be 35 5d 14 be 11 1b 11 3e
       0.0641196 -0.1925211 -0.1448868 0.14170481
000090 6a 46 8c 3d f3 c9 b9 bd af 6a 73 be d8 8c 94 bd
       0.06849368 -0.09071722 -0.23771165 -0.07253426
0000a0 2e e2 ea 3d 92 86 39 be a5 f2 22 3e e8 f6 fb 3d
       0.114689216 -0.18117741 0.15912874 0.12302953
0000b0 69 4f a3 bb 21 81 94 3d 98 82 a2 bc df 62 61 3d
       -0.0049838317 0.07251192 -0.019837663 0.05502593
0000c0 ce 79 2b bd 26 11 93 3d b9 2f 35 be 9f 5d 6e 3c
       -0.04186421 0.07181005 -0.17693986 0.014548688
0000d0 17 70 31 be eb e5 30 bd d0 da 2a bc 44 3f 3b 3d
       -0.17327915 -0.043188017 -0.0104281455 0.04571463
0000e0 34 b5 5e be dd fc bd 3d 5b 91 02 3c 96 a0 f7 bc
       -0.21748811 0.092767455 0.007969226 -0.03022794
0000f0 55 f0 6e bd 9d 1d 20 be 79 e4 33 3e d4 ab cc 3d
       -0.058334667 -0.15636297 0.17567624 0.09993711
000100 7f 7b 63 3e 7f 6d 79 be 22 71 a4 3d b3 b2 34 be
       0.22215079 -0.24358176 0.08029391 -0.17646293
000110 ad fd 6d be f2 5e 9a 3d 40 19 84 3d 17 39 54 3c
       -0.23241301 0.07537641 0.064501286 0.012953064
000120 0f d5 3d be f8 f2 2d be cc 7e 16 3b b4 76 ae bd
       -0.18538307 -0.16987216 0.002296376 -0.085187346
000130 80 55 c6 3d e6 e6 ed bd 8d 26 a4 bd 38 46 01 3d
       0.096842766 -0.11616306 -0.080151655 0.031561106
000140 0e f2 64 bd 8e dd 31 3e ea 76 2b be 1d da 7f bd
       -0.055894904 0.17369673 -0.16744581 -0.06246387
000150 d3 3a 8c bc 61 83 71 3d 42 ce 58 bd 2d 53 d1 bd
       -0.017117893 0.058963183 -0.052931078 -0.10220943
000160 1a c4 1c be 6c 24 2a bd 79 cb c8 bd f1 81 66 3d
       -0.15309182 -0.04153864 -0.09804434 0.056276266
000170 cf 60 5e bc f0 cb 1d 3d 86 14 07 be c1 97 1b be
       -0.013572886 0.038524568 -0.13191423 -0.15194608
000180 df b0 f4 3d ab bc f4 3d df 75 41 be ce 54 b6 3d
       0.11947798 0.11950048 -0.1889262 0.08902894
000190 59 ae 60 be 13 96 12 be de 37 0a be 97 ef 5e 3d
       -0.21941508 -0.14315061 -0.13497874 0.05442771
0001a0 57 e4 10 be 40 d5 2c 3d 7e 85 06 3e 6a 7b cf bd
       -0.14149605 0.04219556 0.1313686 -0.10130961
0001b0 0a 0f 37 3e 4a 85 fa 3d 9b ee af 3d 20 6b c2 3d
       0.1787683 0.12232454 0.08590432 0.09493089
0001c0 98 1d 09 3e 14 ab 44 be 48 3f 0a 3e b0 48 02 3e
       0.13390195 -0.19205886 0.13500702 0.1272304
0001d0 ff 5e 9d bc cd ea 11 3e 6f 50 33 be 15 20 25 be
       -0.019210337 0.14249726 -0.17511152 -0.1612552
0001e0 35 e5 1e 3d 37 94 4d be 7c 26 ed bd 47 66 49 be
       0.038792808 -0.2007607 -0.11579606 -0.19667922
0001f0 b5 86 33 be 09 90 ff 3d 4b 33 2a be 74 24 6b 3d
       -0.17531855 0.124786444 -0.16621129 0.05740781

feature_layer.2.weight f4 [128, 128]
000000 33 95 af 3c 83 a7 93 3d 13 87 94 bc 72 16 d4 bc
       0.021433448 0.07209685 -0.018130815 -0.025889609
000010 7d 6f 09 bd 78 5f 44 3d b4 d0 ca 3c 53 ee 91 3c
       -0.03355359 0.04794261 0.02475772 0.017813837
000020 8a a0 97 3c 13 68 88 3d 7e fd b2 bc 86 f7 94 bd
       0.018509168 0.066604756 -0.02184939 -0.07273774
000030 77 57 60 bd c8 1a 4f bc c2 b7 61 bd 29 fa 51 bc
       -0.054770913 -0.0126406625 -0.055106886 -0.0128159905
000040 ab 93 37 3d 3e 86 f0 bc a3 03 5d bb 20 7c 71 3c
       0.04481856 -0.029360887 -0.0033724091 0.014739066
000050 7d 09 fa 3c c0 81 46 bd 40 a4 dd bb 0b c4 7c bd
       0.030522102 -0.048463583 -0.006763965 -0.0617104
000060 d0 46 b1 3c 84 7b 9a 3b 9e 36 16 bc ae 7e 30 3d
       0.021640211 0.0047144312 -0.009168295 0.04308956
000070 ae c8 6e 3c 3e 25 3f 3d 8c a8 7d 3d c0 93 09 3c
       0.014574213 0.046666376 0.061928317 0.008397043
000080 94 f2 a3 3c fe 6e 49 bd 04 e0 ba 3c 82 54 fd bd
       0.020013131 -0.049178116 0.022811897 -0.12369634
000090 fb f2 cf 3c ec 7c a7 bd cc 17 d2 bd 68 2a 12 bd
       0.025384417 -0.08178124 -0.10258445 -0.035684973
0000a0 98 cf 8b 3c 10 84 c8 3c 8d 8d ef bc 8b 38 71 3c
       0.017066762 0.024477035 -0.029242301 0.014722954
0000b0 56 d1 47 3d 61 48 17 bd a1 e5 0e bc 68 3d 4b bd
       0.048783623 -0.03693426 -0.00872174 -0.04961911
0000c0 02 9f 79 bd ed de 90 3d 19 e3 96 3c 83 72 9b 3d
       -0.060942657 0.0707377 0.018418835 0.07590201
0000d0 50 8e 74 3c 78 23 b2 bd c9 48 8b 3d 98 56 8f 3c
       0.014926508 -0.086981714 0.06800992 0.017497346
0000e0 9f 0f a4 bd d1 85 6d bc e9 ed 7b 3d 24 fb 4a bc
       -0.08010792 -0.014497236 0.061506186 -0.012388978
0000f0 25 21 64 3c 1b 71 1b 3d 3f 1c 19 3c 37 e1 2e 3d
       0.013923918 0.037949663 0.009345113 0.04269525
000100 98 ce 08 bd f2 9f 8b bc 7f 3e c0 3b ea 4e 08 bd
       -0.03340015 -0.017044041 0.005866825 -0.033278383
000110 60 37 2b bc cf 43 17 3c 2d da cd bd 2c 06 8b 3d
       -0.010450214 0.009232475 -0.10051379 0.067882866
000120 3e 91 1e 3d 6d ea a2 3d 0c 44 c1 bc 22 71 d6 bd
       0.038712732 0.079548694 -0.023592018 -0.10470797
000130 dc fc c1 bd b0 4a 3b bd a9 1b 9b 3d 86 76 a3 bd
       -0.09472057 -0.045725524 0.07573635 -0.07981591
000140 99 c8 e8 bd e1 e8 c3 bb 14 5b 88 bd 9e ea 48 3d
       -0.11366386 -0.005978689 -0.06657997 0.049051873
000150 fd b3 40 bd 74 c5 ba 3b f5 4d f7 bd 56 61 7b 3d
       -0.04704665 0.005699808 -0.12075416 0.061372124
000160 28 23 78 bd 41 44 77 bd ff 6b 80 3c 27 8b 64 bd
       -0.060580403 -0.060367826 0.015676497 -0.05579677
000170 d3 da b8 bd c5 dc 18 bc 4f dc 7f bc da 36 f8 bd
       -0.090261124 -0.009329979 -0.0156164905 -0.12119837
000180 2c b7 a4 bd c1 dc 5c bd 21 50 ad 3d 32 bf 8d bd
       -0.0804275 -0.053921465 0.08462549 -0.06921233
000190 23 89 b8 bc a8 75 fa bc 36 50 48 bd e0 98 f3 bc
       -0.02252633 -0.030573681 -0.04890462 -0.029735982
0001a0 82 80 23 bd fb 98 24 3d c1 da ee bd 60 89 a3 3b
       -0.039917476 0.040184956 -0.11662818 0.0049907416
0001b0 8a 1b 08 be 80 82 1f bc 00 67 44 bd a2 97 a5 bd
       -0.13291755 -0.0097357035 -0.04794979 -0.08085562
0001c0 0e 2d 9d bd 1c 59 81 3c 49 f2 02 3c bf 86 ca bd
       -0.07674609 0.015789561 0.007992336 -0.09888982
0001d0 03 dc cf 3b 89 45 a6 3c e2 f8 14 3d bf d6 1e bd
       0.006343366 0.020296829 0.036370166 -0.038779017
0001e0 b6 17 59 3c de b1 33 bd 8c ed 89 bc 28 44 15 3b
       0.013250282 -0.0438708 -0.016836904 0.002277622
0001f0 f2 c9 b2 bd ee a4 97 bc c9 08 2c bd f2 05 a2 bd
       -0.08729924 -0.018511262 -0.042000566 -0.0791129
000200 41 1b e1 3e 10 c7 07 bc 6c 6e 30 3e 32 24 43 3d
       0.43966106 -0.008287206 0.17229623 0.04764194
000210 62 73 87 bd 6a d1 54 3e 0c d8 c5 3c ce 9c bf bf
       -0.066138044 0.2078301 0.02415087 -1.4969728
000220 0e d9 15 3e ee 73 2c 3b b2 3e 05 bf 00 f5 95 bb
       0.14633581 0.0026314217 -0.5204879 -0.0045763254
000230 34 a9 9f 3c 23 52 9d 3d 8c 9c 8e 3c 9c b2 6d 3e
       0.019489862 0.07681682 0.017408632 0.23212665
000240 17 f8 5c be 9d 9b 12 bd 80 32 48 3e 60 9c 9d bb
       -0.21579014 -0.035792936 0.19550514 -0.004809901
000250 44 7c 68 3e c6 89 cc bf 2a 90 b1 3b 40 e4 39 bf
       0.22703654 -1.5979545 0.005418797 -0.72613907
000260 cb 1c ab 3d 40 c3 a5 bd 43 43 36 3b fe 64 30 3d
       0.08355101 -0.080938816 0.0027811087 0.043065064
000270 2d 68 bd bf 99 7a 98 3d 91 78 39 3e 7f d9 b2 3d
       -1.4797417 0.07445259 0.18112399 0.0873289
000280 b2 4b 9e bd 59 f6 a1 bd 31 91 a5 3d 95 c1 88 3e
       -0.077292815 -0.07908315 0.08084334 0.2671019
000290 94 a7 85 3e 14 a8 92 bc f7 89 82 be 9e 28 85 3d
       0.26104414 -0.017902412 -0.25495884 0.06501888
0002a0 d4 29 ba bc ae 4a 95 bd 1d 50 2c bf c6 b9 06 be
       -0.022725023 -0.07289635 -0.67309743 -0.13156804
0002b0 53 66 97 bd 7d 99 9a bf 9c fb 63 be 30 d6 7c 3e
       -0.07392564 -1.2078091 -0.2226395 0.24691081
0002c0 65 1c fe 3d 30 8d b6 bc 08 8b 88 bd 71 4c a3 3e
       0.124077596 -0.02228412 -0.06667143 0.31894258
0002d0 b4 fd d1 bc 10 63 86 3e a3 89 91 bd 35 97 9f bf
       -0.02563367 0.26247454 -0.0710633 -1.246802
0002e0 86 b3 75 bd 1e 92 84 be 4b 02 8d bd b6 0a 4f be
       -0.05998566 -0.2589273 -0.06885203 -0.2021893
0002f0 76 4d 9f 3d 0d 65 88 3d 23 fa 5c 3e 85 9c b7 3d
       0.077784464 0.06659899 0.21579795 0.089654006
000300 7a 05 8b 3e 4f cf 4d bf db 45 7b be 31 e3 1d be
       0.27152616 -0.8039445 -0.24538366 -0.15418698
000310 45 52 bf 3d 1a c8 ab bc ed 6d 19 bf 35 01 b6 bd
       0.093418635 -0.02096944 -0.5993336 -0.08886949
000320 28 0e 16 bc 54 d9 e3 bc c5 72 7f 3e 31 d0 a0 3e
       -0.009158649 -0.027813591 0.24946125 0.31408837
000330 d7 11 58 3c 7c 65 6a 3d 07 33 9f 3d 8b 09 7b bd
       0.013187847 0.05722569 0.077734046 -0.061288398
000340 ce e2 c3 bd 32 b3 6c 3d 91 04 8f 3d d3 de 81 3d
       -0.09564744 0.05778808 0.06983293 0.063413285
000350 11 69 6f 3d e8 39 62 be fe 9b 19 bf ad f3 4e bd
       0.05844981 -0.22092402 -0.6000365 -0.050525356
000360 6c 3c 83 bd 00 09 1f bd 8e 63 27 3e 89 12 2f be
       -0.06408009 -0.038826942 0.16346571 -0.17096914
000370 56 f1 a6 bd 4b 71 f6 3d d4 c0 6a 3e f1 43 5d 3e
       -0.081515 0.12033328 0.2292512 0.21607949
000380 6e 18 42 3e 49 86 4c 3d 06 3a 7c 3d a3 7e 29 3f
       0.18954632 0.04993275 0.061578773 0.6620886
000390 d6 53 aa bc 78 e8 ea bc 57 58 e2 3d 22 9c 7e bf
       -0.02079193 -0.028675303 0.11052006 -0.9945699
0003a0 7e 71 43 3e bd 6f 5d 3e 9f bb 90 3d 60 cd bd 3c
       0.19086263 0.21624656 0.07067036 0.02316922
0003b0 31 03 88 be 70 06 f6 bb 3b 66 0a be d9 4f c3 3e
       -0.26564935 -0.0075080916 -0.1351556 0.38146856
0003c0 af 9f 3c 3c 7e 7f 81 3e b7 8a 9a 3e 9f f8 46 3e
       0.011512681 0.2529258 0.30183956 0.19430779
0003d0 e9 22 2e 3f 37 3d f0 bd b5 37 a1 bd f8 eb 6b 3e
       0.6802202 -0.11730426 -0.078719534 0.23039234
0003e0 e6 2f c4 be 48 7d ea be 6c 30 bb bc 93 44 2f 3e
       -0.38317794 -0.45798707 -0.022850238 0.17116003
0003f0 67 9e 6e bf e1 1f 82 be 5b fd 8c 3d 17 8b 9e 3d
       -0.9321045 -0.25414947 0.06884261 0.07741373

feature_layer.2.bias f4 [128]
000000 bf 05 04 be 32 a3 bf bc 1e 0c e4 3d 53 95 f6 3b
       -0.12892817 -0.023393247 0.11135124 0.007525125
000010 96 fe 5c 3e 2a fe 10 bd c5 b5 db bd 46 b4 ab bd
       0.21581492 -0.03539864 -0.10728029 -0.08383994
000020 04 a7 10 be f3 9b b9 3e c3 ec 45 be e2 06 55 3e
       -0.14126211 0.36251792 -0.19328599 0.20803407
000030 50 a3 93 3e 79 35 67 3e 2f a0 87 3d 2d d0 62 bd
       0.28835535 0.22578992 0.066223495 -0.055374313
000040 91 4e 7b bc 54 11 bc bd af 32 ec bd 06 ce f5 3e
       -0.015338556 -0.091829926 -0.11533105 0.48008746
000050 36 81 8a 3d fc d1 af bd bd dd 60 bd 1a e1 22 3e
       0.06762926 -0.08584973 -0.054898966 0.15906182
000060 ec 21 13 3e 03 60 4b 3e 21 e4 63 3e 6a 73 f7 3c
       0.14368409 0.19860844 0.22254993 0.0302064
000070 41 85 42 3d 4b 68 14 bc 5b e0 90 bd 95 88 f7 bc
       0.047490362 -0.0090580685 -0.070740424 -0.030216495
000080 1d 32 9d b9 86 4c 48 bc fc 72 35 be 63 b4 3b 3e
       -0.0002998271 -0.012225276 -0.17719644 0.18330531
000090 53 a8 05 be 7a a2 16 be ff fc 8a bd 8d 83 8f bd
       -0.13052492 -0.14710417 -0.067865364 -0.07007513
0000a0 c5 60 83 bc 26 ab ad 3d 2f b2 e0 bc 51 4d aa 3e
       -0.016037354 0.084799096 -0.027428715 0.33262113
0000b0 37 02 b1 3d 82 83 bd 3e f9 a1 b1 bd bf 5d 0e bd
       0.086430006 0.37014395 -0.08673472 -0.034757372
0000c0 43 40 9e bc 37 20 a3 3e 35 ba ae bc 86 76 c3 3d
       -0.019317752 0.31860515 -0.021329025 0.09544091
0000d0 99 3e a7 bd e2 95 cc bc 67 c4 a1 3d 66 15 f9 3d
       -0.081662364 -0.024973813 0.07898789 0.121622846
0000e0 4c b9 25 3e 88 1b 2f bd 97 28 ab 3d 0b 8d fa bd
       0.16183966 -0.042750865 0.08357351 -0.12233933
0000f0 15 39 6d 3e 75 97 56 3d aa d3 88 3c ce f3 82 bd
       0.23166306 0.052390534 0.016702492 -0.06394158
000100 f4 6b 67 3e 78 7d ea 3d 31 9e 00 be 18 c5 c7 bd
       0.22599775 0.114497125 -0.12560345 -0.097543895
000110 39 3a f9 bd a9 5a 41 3e 8f ce 98 3b 50 44 42 3e
       -0.12169308 0.1888224 0.0046632956 0.18971372
000120 91 ef e5 bd ed 21 ac bd db 62 0e 3e 0a 0d d6 3c
       -0.11227334 -0.08404908 0.13904898 0.026129264
000130 25 ba 6e bd 33 d8 b1 bd 29 9b 49 3e 54 88 3a 3e
       -0.05828299 -0.08683815 0.19688095 0.18216068
000140 70 a3 a2 bc 14 20 ee bd 35 86 dd bd 59 19 34 3d
       -0.019853324 -0.11627212 -0.108166136 0.043969486
000150 fc 50 96 be c9 3d 31 3d 06 ca 8c 3c 2e 61 e8 bd
       -0.2935866 0.043271814 0.017186176 -0.113466606
000160 4f 6d 2a 3e 4c 9c cc 3c aa 35 8f bd 0a 67 70 3e
       0.1664326 0.024976872 -0.069926575 0.23476806
000170 aa 81 ef 3e 54 60 b1 bd 47 8d 1c 3e be 4f b3 3c
       0.46778613 -0.08660951 0.15288268 0.02188861
000180 cc e6 8a bd 2b a7 c0 3e d9 b1 ee bd c4 49 8a 3e
       -0.06782302 0.3762754 -0.116550155 0.27009404
000190 8f 49 96 bd 44 f3 af bd 31 de 8a bc 61 9f 46 bd
       -0.07338249 -0.08591321 -0.016951652 -0.04849184
0001a0 d9 38 ea 3b b1 e5 69 3b c6 e2 7c bd 49 cc b1 bd
       0.00714789 0.0035689885 -0.061739706 -0.086815424
0001b0 1a 29 ed 3c 60 dc 00 3e 1b 81 0e 3e bb c0 b5 bd
       0.028950263 0.12584066 0.13916437 -0.08874651
0001c0 fe d9 36 3e 65 17 fd 3c f4 8a ef bd 21 71 8c bd
       0.17856595 0.030894944 -0.11696425 -0.06857515
0001d0 c1 ce 5d ba b5 df fb 3c 06 8a 46 bd 9c 75 f2 3d
       -0.00084612897 0.03074632 -0.048471473 0.118388385
0001e0 da 6e c8 3d d9 63 66 bd 20 02 5b 3d f8 25 1c 3e
       0.09786768 -0.056247566 0.053468823 0.15248859
0001f0 4e dd f3 3e 44 14 b0 bc 7d 25 28 bd e5 a0 95 bd
       0.4762978 -0.021494038 -0.041051377 -0.07306079

value_stream.0.weight f4 [64, 128]
000000 10 a8 06 3d 53 f0 44 3e 4d 3e fc bc 05 ac 8b bf
       0.03287512 0.19232301 -0.030791426 -1.0911871
000010 41 b5 6c be 31 ef 01 be 49 cd 30 3d 4c 0f f4 3c
       -0.23116018 -0.126889 0.043164525 0.02979245
000020 e4 18 b3 3c b8 cf 05 be 33 94 9f 3d 08 a8 2f 3f
       0.021862455 -0.1306752 0.07791939 0.6861577
000030 cb f7 21 be 85 f6 ea be 20 75 82 be 6e ec 71 bd
       -0.15817182 -0.45891204 -0.25479984 -0.059063368
000040 a6 74 1c 3d 80 a2 a0 bc 40 c7 75 3c 12 b5 8b be
       0.038197182 -0.019608736 0.015001118 -0.27286583
000050 28 77 83 3d d2 1c 70 3d 80 0f 15 c0 bf 68 45 bd
       0.064192116 0.058621235 -2.329071 -0.048195597
000060 35 4e ac be c0 c4 9d bd 7f 1a a8 be c6 95 9c be
       -0.33653417 -0.07703543 -0.32832715 -0.30583018
000070 e4 53 f4 bb 32 d8 90 3e 08 29 2d bd 10 38 a7 3b
       -0.0074562896 0.28289944 -0.04227546 0.0051031187
000080 7d de ae be 9b a1 99 3d 28 19 a6 3c b6 08 99 3e
       -0.3415412 0.07501527 0.020275667 0.29889458
000090 d1 f5 95 be 44 bb cb bf 37 4e 92 bd c0 39 d8 3c
       -0.29289106 -1.5916524 -0.071438245 0.026394725
0000a0 9f 7c 0a be 7d bf ba be 30 9f f0 bc 62 c5 a8 be
       -0.13524102 -0.3647422 -0.029372782 -0.3296309
0000b0 6c 6e 76 3e c8 0e 4e bc af 05 84 3d a6 55 89 3c
       0.2406556 -0.012576766 0.064463966 0.016764473
0000c0 52 44 8f bd 33 f6 02 be 20 3d 5e bb d8 ec da 3e
       -0.06995453 -0.1278923 -0.0033910945 0.42758822
0000d0 b8 cf 12 3d 9f 26 06 bd 44 26 a9 3e d6 93 e5 3f
       0.035842627 -0.032751676 0.33037007 1.7935741
0000e0 46 6e 54 be 76 5e 39 3d 92 08 00 3f 70 84 ef 3c
       -0.20745191 0.0452561 0.5001308 0.029237956
0000f0 4e 8f 52 bd 7a 96 3e bf 78 aa a3 bd 5d b4 d4 bc
       -0.051406197 -0.7444836 -0.07991499 -0.02596491
000100 36 2c ab be e1 07 09 be 05 30 17 bd ef df 5f bd
       -0.33432168 -0.13381912 -0.03691103 -0.05465692
000110 13 9c 58 bd ce b5 0e be 73 83 56 bd 4c b7 cd 3d
       -0.05288322 -0.1393654 -0.052371453 0.10044727
000120 4d b7 91 bd 00 9e 86 b9 1c 0f c2 bc 2b c8 cf bd
       -0.0711504 -0.0002567619 -0.023688845 -0.10145601
000130 7c b2 1f 3e 7c e7 8f bd a2 9e e4 bc b9 1c 32 3e
       0.1559543 -0.07026574 -0.027907673 0.1739377
000140 30 cd 81 bb 04 5e 9a 3d 68 56 3d bc 86 fe 87 bd
       -0.003961228 0.07537463 -0.011556245 -0.06640343
000150 07 3a ba 3e 78 49 0d 3e 6a 98 61 3d 9a 81 59 3d
       0.36372396 0.13797557 0.055076994 0.053102113
000160 e5 26 0b be 4b 09 24 3d 14 91 75 3d fa 59 4e be
       -0.13589056 0.040047925 0.05995281 -0.20151511
000170 df b2 8a 3d ed 63 34 3d a4 43 54 be e0 bb 0e 3d
       0.06772398 0.04404061 -0.20728928 0.03484714
000180 00 50 e9 3c 1b c6 ae be be 14 2c 3d 84 a0 71 bc
       0.02848053 -0.34135517 0.04201197 -0.014747743
000190 be 82 90 bd 31 8d 67 bd d9 76 b5 3d 3f dd c3 bd
       -0.07056187 -0.056531135 0.08860559 -0.09563684
0001a0 73 94 4f bd 20 85 98 bb 8d 00 2e bc 80 88 f8 3b
       -0.05067868 -0.0046545416 -0.0106202485 0.0075846314
0001b0 27 92 1f 3d 08 49 08 3c 86 71 57 3d 5a 6e 65 3d
       0.03895774 0.008318193 0.0525985 0.056013443
0001c0 9b bc 88 be fd aa 66 bd 64 7d 5d bd d0 15 8c 3b
       -0.26706395 -0.05631541 -0.05407466 0.004275061
0001d0 7f 63 81 3e 14 d0 04 3f a0 93 54 3b 54 99 cd 3d
       0.25271222 0.5188 0.0032436624 0.10039011
0001e0 4f f1 14 3d ea a7 2c 3d 00 32 5a b9 3b eb f5 3e
       0.036362942 0.042152323 -0.00020808727 0.4803103
0001f0 02 53 42 be 49 0b 4c bd e6 ec 24 bf 69 d5 6a bd
       -0.18976977 -0.04981545 -0.6442398 -0.05733243
000200 d0 b9 34 3d 70 ef cd be 59 55 b7 bd 74 16 0e 3f
       0.044122517 -0.4022174 -0.08951826 0.5550301
000210 0f f2 4d 3f 78 c9 72 be d7 9a ab 3d 10 20 be bc
       0.8044748 -0.23709667 0.08379143 -0.023208648
000220 5c 20 36 3b 6a 20 6e 3c 45 ce d0 3d 92 ea 5a 3f
       0.0027790284 0.014534095 0.10195593 0.85514176
000230 4a cf 9e 3e 39 70 90 bd d4 de f4 bd 7c e0 85 bc
       0.31017524 -0.07052655 -0.119565636 -0.016342394
000240 c8 18 66 3c e1 12 a6 3e 10 cf 88 bd 84 4e 80 be
       0.014043994 0.32436278 -0.06680119 -0.25059903
000250 d4 e1 63 3b 79 25 9b 3c 3e c6 1a 3f 11 f2 3e bd
       0.0034772055 0.018938767 0.60458744 -0.04661757
000260 cb ca e9 be 7b b7 85 bd a9 81 2f bf 97 ca b5 3e
       -0.4566253 -0.06529137 -0.6855722 0.35506126
000270 cc 25 54 3e 71 81 4c be c3 32 54 3d cb 7f 63 bd
       0.20717543 -0.19971253 0.051806223 -0.055541795
000280 8a de eb be 5c 67 a7 3c 61 91 9f 3d 2c c2 00 bf
       -0.4606822 0.020435028 0.07791401 -0.5029628
000290 54 bb e5 be 4b 0f 0d 3f b5 9d ac 3d c4 2c 68 bd
       -0.44869483 0.5510146 0.08428518 -0.056683317
0002a0 6f 8b 4b 3e d2 93 5c bf 28 e9 57 3c 95 c6 20 be
       0.19877408 -0.86163056 0.013178147 -0.15700753
0002b0 1e e4 c2 3e 52 ce ff be 49 f7 14 bd 4f b0 aa 3d
       0.38064665 -0.49962097 -0.036368642 0.083344094
0002c0 1e 21 5d 3d 3d 6f 0d bf 14 8c 9a bc a5 47 1e be
       0.05398666 -0.5524786 -0.018865623 -0.15457018
0002d0 1c d0 18 bd 0c ed a2 bd 63 76 ea 3e 3b 4a ef 3d
       -0.037307844 -0.07955369 0.45793447 0.1168408
0002e0 b6 d0 b4 3e b8 aa 1d 3d 99 83 aa 3e 11 82 84 bd
       0.35315484 0.03849289 0.33303526 -0.06470121
0002f0 fe 7c 67 bb af 94 38 be 78 01 4c bd 6b 0c 28 bd
       -0.0035322304 -0.18025468 -0.04980609 -0.041027468
000300 bb 78 8a bf ab 2d fe 3d 6a f2 ba 3c 9a f7 60 bd
       -1.0818094 0.12411054 0.02282067 -0.05492363
000310 cb 53 96 bd 75 76 c4 3c 14 48 a6 be 73 b7 18 3e
       -0.07340201 0.023982266 -0.32476866 0.1491373
000320 c7 97 99 3d 9b 6d 93 3d 79 42 b6 bd 9d da 44 3e
       0.07499652 0.0719864 -0.088993974 0.1922402
000330 7d fd b9 3d 47 82 a3 3b 39 5e 39 bf e0 4e 83 3d
       0.09081552 0.0049898955 -0.724094 0.064115286
000340 c5 39 95 3d 35 05 c9 3a 39 21 b8 bd 6b 3f 62 3d
       0.07286409 0.0015336635 -0.08990712 0.05523626
000350 df 5a 29 bf 70 45 03 3e 75 29 75 3d e6 a7 56 bd
       -0.66154283 0.12819457 0.05985399 -0.052406214
000360 3a e1 56 3e 9b e7 8d 3f 79 17 10 bd af ed 1b bf
       0.20984355 1.1086305 -0.035178635 -0.6090955
000370 34 b2 a2 be 11 7a 76 3d 4f 7e d5 be 6d f1 e6 3c
       -0.31776583 0.060175005 -0.41697928 0.028191293
000380 98 92 09 3d 14 92 9b be a8 08 3c 3c c4 1e 23 3e
       0.03358707 -0.30384886 0.011476673 0.15929705
000390 4c a3 7c 3c 42 02 72 3d b7 42 08 be f4 ef 6b bf
       0.015419792 0.059084184 -0.133067 -0.92163014
0003a0 f0 0e 93 be c9 d8 2c bb 72 c8 5d 3d 2f 97 97 bd
       -0.28722334 -0.0026374331 0.054146238 -0.07401883
0003b0 16 5a 51 bd 0f 04 71 3e 13 8a 41 3f f8 98 3e 3c
       -0.051111303 0.23536704 0.7560131 0.01163315
0003c0 7e a8 61 be 34 b1 3c 3c a8 67 4d 3e 9f 4e 87 bd
       -0.22036931 0.011516858 0.20059073 -0.06606793
0003d0 99 c3 05 bf 5b 58 a0 bd 89 0d e5 3d 3f 84 98 be
       -0.52251583 -0.078293525 0.11184222 -0.29788396
0003e0 51 00 92 bf 9a b4 a7 bd e5 7f 28 bd be 36 db 3e
       -1.1406347 -0.08188744 -0.041137595 0.42815202
0003f0 a3 47 56 be fc b7 27 3b 63 c1 88 3f 98 ce 4c 3b
       -0.20925765 0.002559184 1.0684017 0.003125107

value_stream.0.bias f4 [64]
000000 d1 e6 d1 be 43 d2 b4 3d b9 37 ab be 58 e1 f7 3e
       -0.4099641 0.08829167 -0.3344095 0.4841411
000010 ce e6 ff bd 9b 5c f7 3e fb 4c 6a 3d 2d c5 66 bc
       -0.124951944 0.4831284 0.05720232 -0.014085096
000020 b9 e7 f0 3e bf 39 a5 3e b0 3e e4 3e 0d 12 e3 bd
       0.4705179 0.3227062 0.44579077 -0.11087427
000030 ab 6d 53 3d 71 49 61 3d 09 3b d2 bd 3f 82 df 3e
       0.05161826 0.05500168 -0.10265166 0.43654057
000040 98 dd 66 3d ab 64 f5 3e 1b 47 02 be 13 35 95 bd
       0.056363672 0.47928366 -0.12722437 -0.07285514
000050 06 b0 d7 be 84 93 fc 3e df df 06 3f eb f7 a2 3e
       -0.42126483 0.49331295 0.5268535 0.3182977
000060 40 46 02 3f 45 ee cb bd a2 ec fd 3c 75 5c de 3d
       0.50888443 -0.09957556 0.030996624 0.108574785
000070 ce 30 00 be 65 f6 b8 3e fe 6c ef 3e 28 e7 aa 3d
       -0.12518618 0.36125484 0.46762842 0.08344871
000080 2a df be 3e 86 3a cb 3e 9c d2 b4 bb d9 08 03 3f
       0.37279636 0.39693087 -0.0055182707 0.51185375
000090 08 2a 02 3f f3 47 e7 3e 45 18 46 bd 03 83 b6 3e
       0.50845385 0.4517208 -0.04836299 0.3564683
0000a0 df 1f b7 3e 30 e4 f3 bd 25 95 fd 3e 61 6e ca be
       0.35766503 -0.11908758 0.4952785 -0.39537337
0000b0 43 fb a3 bd ec 79 f7 bd 57 08 ea 3e b7 69 5a bd
       -0.08006909 -0.120838016 0.45709488 -0.053323474
0000c0 71 fa ef bd b8 6a 38 3d de 83 f0 3e 62 92 dc 3e
       -0.1171769 0.04502365 0.46975607 0.4308043
0000d0 0d c9 04 3f 56 a1 e6 bd cf 0a c2 3e 45 df 96 3e
       0.5186928 -0.11261241 0.3789887 0.29467216
0000e0 78 92 d2 3e 62 15 e1 3e 8c fb 93 bd ab b8 0f bd
       0.41127372 0.43961626 -0.07225713 -0.035088222
0000f0 f4 bc f5 3e f3 a3 a3 bb 10 2e c6 bd 96 f3 6c 3c
       0.47995722 -0.0049939095 -0.096767545 0.014462372

value_stream.2.weight f4 [1, 64]
000000 02 0b b7 bf 89 f9 ab 3f c2 e6 87 bf 92 23 84 3e
       -1.4300234 1.3435527 -1.0617297 0.25808388
000010 f6 70 72 bc 56 f6 84 3e 8a 25 22 3f 6b 66 90 bd
       -0.01479744 0.2596919 0.6333853 -0.07050785
000020 e2 93 78 3e 89 1c 21 3e f0 de 67 3e b3 d5 70 3b
       0.24275163 0.15733542 0.22643638 0.0036748468
000030 3e 89 5e bd 6b 58 b1 bd 5d 8f 43 bc 23 bd 07 3e
       -0.054330103 -0.086594425 -0.011936036 0.13255744
000040 c0 9e 49 c0 bb 32 5d 3e de 82 2c bd 57 e6 67 3c
       -3.1503143 0.21601383 -0.042116992 0.014154038
000050 a8 06 34 bf fd 08 aa 3e a3 91 7b 3e 01 c9 92 3f
       -0.70322657 0.33209983 0.24567275 1.1467592
000060 30 86 8a 3e fc 16 cb bc 5e 93 23 c0 d8 5b 04 c0
       0.27055502 -0.024791233 -2.5558696 -2.0681057
000070 ee 5f 9e bd 8d 63 41 3e 50 ce 08 3f c8 fa ab bd
       -0.07733141 0.18885632 0.5343981 -0.08397442
000080 2b 0f 91 3e 35 13 83 3e 1e e9 8a bc 11 9d 6a 3e
       0.28331885 0.2560059 -0.016956862 0.22911479
000090 f2 6d 3e 3e b2 41 66 3e ee 57 92 3d 65 02 48 3f
       0.18596628 0.22485998 0.071456775 0.78128654
0000a0 15 66 58 3e ac 7f 9a ba 0f 6c 6d 3e 35 b8 45 bf
       0.21132691 -0.0011787317 0.23185752 -0.772342
0000b0 08 77 58 3d 19 5e 4d 3c 7e a7 64 3e 77 9c 12 bd
       0.052847892 0.012534642 0.22329518 -0.035793748
0000c0 19 42 8c bd 16 26 d2 bd 3a 61 16 3e b2 2b 2a 3e
       -0.068485446 -0.102611706 0.14685526 0.16618231
0000d0 1b fe 55 3e 30 d9 b3 bd ce a4 71 3e ee 62 cc bf
       0.20897715 -0.087816596 0.23598024 -1.5967691
0000e0 c9 72 3e 3e c9 1a 2b 3e 99 ac 32 3c 1b 28 38 bd
       0.18598475 0.16709436 0.010905408 -0.044960123
0000f0 b2 a3 50 3e c3 d5 3e bc 3c f7 80 3c 99 5a f4 bf
       0.20374945 -0.011647644 0.01574289 -1.9090148

advantage_stream.0.weight f4 [64, 128]
000000 b2 62 a6 b9 12 84 9b 3e 47 68 19 bf 58 ab 13 3f
       -0.0003173552 0.303742 -0.5992474 0.57683325
000010 19 a5 36 bf ca ae 04 3e d0 99 91 3c 69 b2 64 3d
       -0.7134567 0.12957302 0.017773539 0.055834208
000020 23 22 bf bd ed 04 0c 3d 30 ca ba be b9 e5 ea b9
       -0.09332683 0.034184385 -0.36482382 -0.00044803115
000030 f2 28 14 3e ee e7 b1 3e 36 fe f0 bf 3b 70 3b 3c
       0.14468744 0.3474726 -1.8827579 0.011440332
000040 c1 23 ab bd 66 a9 95 bf 96 e5 41 bd a1 af 0f 3e
       -0.08356429 -1.1692321 -0.04733809 0.14031841
000050 f8 90 9c be 76 89 91 3c 3b f7 80 3d c1 fe 8b 3e
       -0.30579352 0.017765742 0.062971555 0.273428
000060 f8 91 a1 bd 15 95 de bb 2a c7 47 be b5 40 f8 bc
       -0.078891695 -0.0067926743 -0.19509569 -0.030304292
000070 26 ac ca be 1e f1 1d be 98 e3 b5 bc 3c c8 18 3d
       -0.39584464 -0.1542401 -0.022203252 0.037300333
000080 91 ae 60 bd 82 24 03 be ae fa 62 bf 21 09 86 bd
       -0.05485398 -0.12806895 -0.88663757 -0.0654471
000090 79 2c ab 3f 0a 0e c4 bd 25 c0 3b bd 36 cc 2e bd
       1.3372947 -0.0957299 -0.04583754 -0.04267522
0000a0 6c af 16 be 90 63 db be 73 9b d6 3c e5 eb bc 3d
       -0.14715356 -0.42849398 0.02619717 0.09224681
0000b0 88 14 a5 3e 8f e3 23 3d ad 76 05 bd a0 67 7f be
       0.32242227 0.04001194 -0.03258388 -0.24941874
0000c0 bc 32 b4 3b 6c 29 06 3e 6a 69 e4 ba d8 af 7f 3e
       0.005499212 0.13101739 -0.0017426435 0.24969423
0000d0 4f e7 78 bd c9 42 c6 bc 3e 63 79 3e 70 16 2e 3c
       -0.060767468 -0.024201768 0.24354264 0.010625467
0000e0 a9 04 5f bf 20 65 60 3d 4b b9 14 3f 4e 90 d5 3c
       -0.87116486 0.05478394 0.58095235 0.026069786
0000f0 e2 80 a4 bd 3a ff 2c 3e a5 04 60 bd f8 bb 03 3d
       -0.08032395 0.16894236 -0.05469193 0.032161683
000100 c7 b1 c8 3d f2 c6 e2 be 6f 9b 3e bd 3e 86 79 3d
       0.09799533 -0.44292408 -0.04653495 0.06091904
000110 ff aa e9 bd 19 d7 c5 3d c6 76 d5 be 6a 0e e4 be
       -0.11409568 0.09660167 -0.4169218 -0.44542247
000120 40 de ea ba f9 90 d7 3c b3 f6 ae 3c 0b 9f ab bd
       -0.0017919019 0.026314246 0.02135787 -0.083799444
000130 a9 7f fa be da 18 f3 3c 8a 17 70 bf f5 11 fd 3d
       -0.48925522 0.029674936 -0.9378592 0.12356941
000140 f9 ae 81 3d 73 31 d5 be 42 30 f9 bc 19 a2 00 be
       0.063322015 -0.4163929 -0.030418519 -0.12561835
000150 7b e8 18 bf b1 c9 1b bf 34 ea 82 3d a0 8c 8c bd
       -0.5972974 -0.6085463 0.06392327 -0.068627596
000160 42 c8 0c 3f 1c 08 6e 3d ee 33 33 bc d7 c4 83 3d
       0.5499307 0.058113202 -0.010937674 0.064340286
000170 65 07 a1 3d ae e1 a3 bc b0 b3 16 3e 2d a0 82 bc
       0.078627385 -0.020005073 0.14716983 -0.015945518
000180 38 ee b4 3b fd 96 1c 3e 7c 73 04 bd 61 15 98 3e
       0.005521562 0.15291972 -0.032336697 0.2970381
000190 8e 0e 91 bd 92 c0 d1 3d 76 2e 92 3e 45 ad 47 3c
       -0.07082854 0.10241808 0.28551072 0.012187307
0001a0 da 2e 96 3e 1b e4 1f 3d a6 19 a4 3c fe 59 9e 3d
       0.2933262 0.039035898 0.020031761 0.077320084
0001b0 df a5 39 bc be 50 f4 3e 7b 23 24 3f 44 54 9f bc
       -0.011331051 0.4771785 0.6411664 -0.01944936
0001c0 fd 25 02 3e 69 4c 8b bd e5 a2 df be 88 d1 9a 3b
       0.12709804 -0.068016835 -0.43678966 0.004724685
0001d0 1a 3f 31 bf 6d f9 ea 3d f4 28 af bc 5d 2a 7e be
       -0.6923691 0.114733554 -0.021381833 -0.24820848
0001e0 d3 cd d2 be 10 9d bc bd fe f0 90 3d df 0c 7a bf
       -0.41172656 -0.09209645 0.070772156 -0.9767589
0001f0 a6 01 a8 3e 6e 92 7c bd 7e d5 86 3c 87 c4 01 bd
       0.32813758 -0.061663084 0.016459223 -0.031681564
000200 5d b1 99 3d 5b 14 ab bd 85 ea e3 3d 4d 95 e6 3e
       0.075045325 -0.08353492 0.111287154 0.45035782
000210 e5 d2 ae bf f0 f3 b3 bd 40 ed b0 3a 9f 1c 1a bd
       -1.365811 -0.08786762 0.001349844 -0.03762495
000220 a9 ca 06 bd 91 cd 92 3e 5d d3 d6 be 93 08 b5 3e
       -0.032908116 0.2867246 -0.41958132 0.35358104
000230 48 30 2c be 73 1d b8 3e bb ed 07 bf 2a a2 62 3c
       -0.16815293 0.35959968 -0.5309712 0.013832608
000240 0c 37 ba 3c ff 77 5c bf 63 29 82 bd 50 c9 cc 3d
       0.022731327 -0.861206 -0.0635555 0.09999335
000250 78 aa 34 bf 80 1e 0d 3e a8 d5 58 bd 74 42 11 3e
       -0.70572615 0.13781166 -0.052938133 0.14185506
000260 44 b2 ae be b7 f2 70 3d 92 65 d7 bb 3a 04 9c 3d
       -0.3412038 0.05882522 -0.0065733874 0.07617994
000270 65 b4 2e be 9b 42 15 3d 46 35 9e 3d 5d 95 d8 3d
       -0.17061003 0.036440473 0.07725005 0.10575364
000280 4e 75 03 bd 6f d7 82 3d 89 59 86 be 90 14 3b be
       -0.032094292 0.06388747 -0.26240185 -0.18269563
000290 9a 95 4a 3f 78 18 d4 3e de 73 05 bd cb a4 46 3d
       0.79134524 0.41424918 -0.032581203 0.048497003
0002a0 22 44 0f 3f e1 cd 09 3f 87 c2 f1 bb f7 1f 67 3e
       0.5596334 0.5382977 -0.007377926 0.22570787
0002b0 a7 a1 01 3f e5 2f 21 3e 04 13 bc bc 74 00 24 bf
       0.50637287 0.15740927 -0.022958286 -0.6406319
0002c0 f5 cc 4b 3b 3e 47 63 3e 90 0f 91 3d c1 f8 6b 3f
       0.0031097506 0.22195145 0.070830464 0.92176443
0002d0 d7 1c 55 bc b8 f9 3a bd 01 ca 92 3e ca 9f 1e be
       -0.013007364 -0.045648307 0.28669742 -0.15490642
0002e0 ac 50 32 bf 73 c2 4d 3d ae 0f 4c 3e 29 c7 b3 3d
       -0.69654346 0.05023427 0.19927856 0.08778221
0002f0 87 62 0f bc 05 aa 50 3d 80 5b 7d 3b 44 11 6e 3c
       -0.008751518 0.050943393 0.0038659275 0.014530484
000300 26 19 bd 3d 86 15 17 bf bb bb 91 bc d7 f0 91 3d
       0.09233312 -0.5901722 -0.017789712 0.07126015
000310 58 02 9a bd 11 af 3b bd d7 9d be be c6 31 cb bd
       -0.07519978 -0.045821253 -0.37229797 -0.09921603
000320 00 32 1f ba 92 fc 4e bd d0 82 88 3e 07 c5 56 3e
       -0.0006072819 -0.05053384 0.26662302 0.20973597
000330 29 06 37 be 28 fd 26 bc 85 bf dd 3e 69 67 82 3e
       -0.17873444 -0.010192193 0.4331018 0.2546952
000340 34 d7 ce 3c ce 5c 6a be 5f 5f 5d bc 55 eb 8f 3c
       0.025249101 -0.22886965 -0.013511508 0.01756827
000350 0e 4a e0 be 62 fb 3a bf a9 21 c0 bc bc c7 a9 3c
       -0.438065 -0.7303983 -0.02345355 0.020725124
000360 68 cb 37 be 87 ff 23 be d3 09 13 3d 4d 8b 64 3d
       -0.17948687 -0.16015445 0.03589804 0.05579691
000370 04 4f 16 3e 9c 27 0b 3e 42 c9 73 3e fa 8b 4d bb
       0.1467858 0.13589329 0.23807243 -0.003136395
000380 ad 37 d7 bc d4 9d cf 3e f6 03 52 3d c0 e1 28 3d
       -0.026271665 0.405501 0.05127331 0.041230917
000390 28 33 d5 3c 28 06 64 bc cd ff 8e 3e 97 be 0f be
       0.02602537 -0.013917483 0.27929536 -0.14037548
0003a0 86 a2 95 3d f4 53 73 3d f2 96 aa bb 25 58 3d 3a
       0.073063895 0.059406236 -0.0052059824 0.00072229124
0003b0 2b 38 3e bd 76 20 00 bf e8 bf b6 bd ad 01 9d 3d
       -0.046440285 -0.5004953 -0.08923322 0.07666335
0003c0 31 56 3e 3e 98 89 39 3b 9a 07 2d 3f ba de 95 39
       0.18587567 0.0028310772 0.67589724 0.0002858544
0003d0 20 a1 3f bf 9d df 25 3f 55 4b a9 bd 73 07 45 bd
       -0.7485523 0.6479433 -0.082663216 -0.048102807
0003e0 bb 76 9b bf b5 5d ae bd 76 4b b5 3d f6 15 ef 3e
       -1.2145609 -0.08513967 0.08852284 0.46696442
0003f0 db f6 87 3e 5a 45 9c 3c 35 d7 6d 3e 8e 97 2b 3d
       0.26555523 0.019076038 0.23226626 0.04189258

advantage_stream.0.bias f4 [64]
000000 62 7f 6d 3e aa 39 64 3e 28 d3 ff bd d9 87 e7 3d
       0.23193124 0.22287622 -0.12491447 0.11305208
000010 e8 c9 00 3e 8e cc 72 3d 0e fb 8b bd eb cd 04 3d
       0.12577021 0.05927711 -0.06834994 0.03242294
000020 7e 93 97 3d 24 77 c6 bc f2 b2 c0 3d c4 25 f1 3d
       0.07401179 -0.024226733 0.09409131 0.11774781
000030 da 98 a4 bd 0b 0f 18 3e 01 d2 e0 bd 4d 2c da bc
       -0.080369666 0.14849488 -0.10977555 -0.026632452
000040 d8 62 56 3d c1 63 72 3e 10 ed e7 bb 97 2f 78 3e
       0.05234036 0.23670866 -0.0070778206 0.24236904
000050 79 55 3c bd 44 26 33 3d 16 4f 50 bd f8 75 98 3e
       -0.04597995 0.043737665 -0.050856672 0.29777503
000060 00 d9 75 3e a2 9a de bc a3 3d 16 be 36 de 8c 3e
       0.2400856 -0.027173344 -0.1467195 0.27513283
000070 57 84 84 bd 79 97 aa bd 49 21 b9 bd 2f 45 58 3e
       -0.06470554 -0.08329672 -0.09039552 0.21120141
000080 05 c7 c7 3d 17 fa 25 be 59 9c 0f bd 61 87 fb bc
       0.09754757 -0.16208683 -0.035061214 -0.030704202
000090 02 46 c2 3c 41 8d 8e 3d da 14 c9 bd cd 6b 65 3d
       0.023715023 0.06960536 -0.0981843 0.05601101
0000a0 9f 9a 0d be 8b c9 20 3d 7e e8 a1 bd c7 7c 15 3e
       -0.13828515 0.039254706 -0.079056725 0.1459838
0000b0 3a e0 a0 bc 96 ed 1c bd 50 8e 98 bd 82 9a d3 3c
       -0.01963817 -0.038312517 -0.07449019 0.025830511
0000c0 25 44 ad 3d 79 73 da 3d 00 c6 a5 3b 05 00 df 3d
       0.08460263 0.10666556 0.005059004 0.108886756
0000d0 fa 49 ce 3d 6d 96 95 3e b0 bf fa bc 45 9c b0 3e
       0.10072704 0.29216328 -0.030608982 0.34494224
0000e0 09 98 6e 3e c9 72 f3 3d 7b 41 2c 3e 31 13 76 3e
       0.23300184 0.11887128 0.16821854 0.24030758
0000f0 46 33 ed 3d 3c b0 17 be 1e 2d 80 3e e2 75 9d 3d
       0.11582045 -0.14813322 0.25034422 0.076885

advantage_stream.2.weight f4 [5, 64]
000000 8b e8 37 3e eb 5f 7c 3f e8 e7 39 3e 13 91 92 bf
       0.17959802 0.9858386 0.18154871 -1.1450523
000010 95 71 40 bf 2d d7 e7 3f 46 91 ea bd 19 f2 c5 bd
       -0.7517331 1.8112541 -0.1145349 -0.09665317
000020 6d 7c f7 3d ba 4e 1d bf f8 56 a7 bf 78 9a e8 3e
       0.12084279 -0.6144825 -1.3073416 0.4543035
000030 d1 6e cb be 84 06 bf bf 6e 88 97 bd b3 ca e1 3d
       -0.39732984 -1.4923863 -0.07399069 0.1102499
000040 eb 2f 54 3e a7 68 18 3f 09 b7 01 3d 30 95 93 3e
       0.20721404 0.59534687 0.031668697 0.2882476
000050 ba f0 d5 3d 4e 42 1f 3e c2 a3 8b 3f 0a 9f b9 bd
       0.104463056 0.15552637 1.090935 -0.090635374
000060 95 b6 08 3f dd 24 ad 3d cc cc f0 bc e1 20 ad bf
       0.534036 0.08454297 -0.02939453 -1.3525659
000070 03 be 02 3d 09 5d c7 bd 9e bd e7 bf f1 de d1 bf
       0.03191949 -0.09734542 -1.8104742 -1.6396161
000080 b8 40 dd 3e b1 ea b6 3d 9f 2f 65 3c 7a f2 0e 3f
       0.4321344 0.089314826 0.013988405 0.5583874
000090 cb 4b a0 3e 24 8d c0 3d 90 95 5e 3d c9 00 33 bd
       0.31307825 0.094019204 0.054341853 -0.04370192
0000a0 e2 bd b4 3e be c7 d2 3c 5e 51 99 3d 1c c4 f6 bf
       0.3530112 0.02573001 0.07486223 -1.9278598
0000b0 1a c4 47 3d b0 dd d3 3d 10 5f 03 be 7c 67 0d bf
       0.048771 0.10345018 -0.12829232 -0.5523603
0000c0 9b 6d 99 bf ce d1 48 be c5 08 b5 bd 8d cf 5b bf
       -1.1986574 -0.19611284 -0.08839563 -0.8586357
0000d0 a5 fd b1 be d2 bb ca 3e a8 e7 cf be e8 f1 11 c0
       -0.34763828 0.3959642 -0.40606427 -2.2803898
0000e0 0f fb d9 bf 9b 2c 08 bf 25 24 35 3d 26 b6 a4 3f
       -1.7029742 -0.5319306 0.044223923 1.2868087
0000f0 b7 c7 8f 3f e2 61 13 3e d3 ea df be e1 ab bf be
       1.1232823 0.14392808 -0.43733844 -0.3743582
000100 42 22 c9 be 4f b7 86 bf a5 75 a5 3d 2c 64 2c 3f
       -0.3928395 -1.0524691 0.080790795 0.6734035
000110 8e 3c 2d 3f 68 c3 bc 3d c8 58 83 bd f1 2e e1 bd
       0.67670524 0.09216958 -0.06413418 -0.109952815
000120 49 7d a8 3f 41 14 36 3f 22 72 1e 3e b2 c9 44 3f
       1.3163234 0.71124655 0.15473226 0.7687026
000130 dc 13 66 be e4 89 bf 3e 59 2b 3b 3d ae 13 bf 3d
       -0.22468513 0.3740989 0.045695636 0.093299255
000140 bc 2a dc bf a5 3d 66 bd c1 4c a6 3d bf a3 10 be
       -1.7200541 -0.056211133 0.081201084 -0.14124964
000150 36 ae 44 bc 59 89 df bd 1c 31 41 bf f6 bf 45 3e
       -0.012004426 -0.10914869 -0.7546556 0.19311509
000160 97 42 10 3f 96 5a 64 bd f9 5a 61 bd 75 53 8b 3f
       0.5635161 -0.055750452 -0.0550184 1.0884844
000170 79 31 2b bb e9 2d 4b bc 70 87 65 3d a1 6f 37 3f
       -0.0026122017 -0.012401083 0.056037366 0.7165471
000180 d5 4d aa 3d 53 6b 62 3d f9 a7 db 3a 93 13 8f 3e
       0.083156265 0.055278134 0.0016758434 0.2794462
000190 84 77 07 bd fd 7d 23 3e 51 5d 92 bd f2 0f 4f 3d
       -0.033072963 0.1596603 -0.07146705 0.050552316
0001a0 c8 f4 60 bb a4 94 49 bd 00 19 b0 bd 0b af 5e 3f
       -0.0034325588 -0.04921402 -0.08598518 0.86985844
0001b0 75 a0 2c 3d 85 07 ca 3d 0e cf 91 bd 75 90 9b 3e
       0.04214521 0.098647155 -0.07119571 0.3038365
0001c0 a1 31 dc 3e a8 20 b1 3e 18 36 6d 3d d0 d9 54 3f
       0.43006614 0.34595227 0.057912916 0.83144855
0001d0 58 ac b3 3d df 7b 2a 3e 53 a8 81 bd e9 24 3d 3f
       0.08773106 0.16648816 -0.063309334 0.73884445
0001e0 a5 0c b4 3e da 99 1e bf 34 19 1f bf 81 ac 0d bd
       0.35165897 -0.6195351 -0.6214783 -0.03458834
0001f0 82 a2 98 bf 5c 0d 1f bf 79 a4 25 3f 8e 2d b4 bd
       -1.1924593 -0.6212976 0.6470409 -0.08797751
000200 19 38 83 3f c8 bc 63 3f 3e 7b a8 be 1f 23 66 3f
       1.0251495 0.8895993 -0.32906526 0.8989734
000210 72 e0 f4 be bb 76 a3 be 42 24 91 3c ec 88 5d bd
       -0.47827488 -0.31926522 0.017717484 -0.054085657
000220 8e 71 72 3f d7 11 5c bf 64 ee 8b 3f 8d af 4f bf
       0.9470452 -0.8596472 1.0932126 -0.81127244
000230 8d bc 5e 3f c8 1f bf 3e 2a 9b 87 bd 47 2b 00 be
       0.87006456 0.37328935 -0.06621392 -0.12516509
000240 ad 64 1f 3f 05 8e 5f bf eb c8 81 bc 6f 18 15 3f
       0.62262994 -0.8732608 -0.015842875 0.5824041
000250 08 11 bb 3d 09 12 4a bf ab fd 8f 3d cc 6a 3e 3f
       0.09134108 -0.7893377 0.07030805 0.7438171
000260 bd e3 b1 bf bd f0 95 bd ca 68 15 3d 7a 8c e1 be
       -1.3897625 -0.07321308 0.036476888 -0.44052488
000270 fe ae 25 3d 6b 16 a6 3c 01 e9 7a 3f 24 ec 71 3e
       0.04045009 0.020274362 0.98011786 0.23625237
000280 e0 76 80 3f d8 d5 ab 3d aa 6c 13 bd bc 04 5c 3e
       1.0036278 0.08390397 -0.035992302 0.21486181
000290 57 55 89 be a1 db e2 bd 60 d4 0c 3d 9b fd 4c 3d
       -0.26822922 -0.11077047 0.034382224 0.050046545
0002a0 a4 6a 98 be e1 04 bc 3d a2 73 d3 3d 8f e0 28 3f
       -0.2976886 0.09180618 0.103247896 0.6596765
0002b0 cd 26 18 3d c1 59 e0 3d ee f5 c1 bc 1e 40 3d 3e
       0.03714638 0.10954619 -0.023676839 0.1848149
0002c0 12 03 7e 3f 21 6b df 3d 99 ee e8 bd 35 c5 fd 3e
       0.99223435 0.10909105 -0.11373634 0.4956452
0002d0 59 26 14 bf 24 9c 53 bf 56 85 8e 3f 6e bc 40 3f
       -0.57871014 -0.82660127 1.1134441 0.7528752
0002e0 02 b1 1c 3f 60 ef 8d 3f 88 8e 8b 3e 96 2e cf bf
       0.6120759 1.1088676 0.2725718 -1.6186092
0002f0 2c 52 36 3f 46 58 73 3f c1 ab a3 bf 4f 22 b8 3e
       0.71219134 0.9505657 -1.278679 0.35963675
000300 fc 68 06 c0 1f e2 af bf ce 97 71 3e 65 d9 6d bf
       -2.1001577 -1.3740882 0.23593065 -0.9290984
000310 f4 24 23 3f 76 95 da bf ee d9 f7 bd 4e d2 a5 bd
       0.6372826 -1.7076862 -0.12102114 -0.08096753
000320 30 59 88 be 2b 9a 07 3f 35 da 67 3f 7e c3 fc 3d
       -0.26630545 0.52969617 0.9056733 0.12341975
000330 6f 45 e5 be 3f a1 0d 3f 7c e1 75 bc 5a d5 c1 3c
       -0.44779536 0.55324167 -0.015007373 0.023661304
000340 44 48 0c 3e 65 31 37 3f 7b fd 99 3d 87 ca 91 bd
       0.13699442 0.71559745 0.07519051 -0.07118707
000350 28 d9 34 bd 1c cd 18 3f 26 cc 16 bf fd f2 92 bf
       -0.04415241 0.5968797 -0.58905256 -1.1480404
000360 c9 2b b1 3e 3b 23 e7 bc 10 67 8b bd 03 b8 f2 be
       0.34603718 -0.028215041 -0.06806767 -0.47406015
000370 57 93 a5 bd 95 91 1a bd 5e a0 f1 3e ac 9c 57 3f
       -0.080847435 -0.037736494 0.47192663 0.8422344
000380 de e6 80 bf 84 3e d1 3b 75 e9 69 bd 8b a7 ce bf
       -1.0070455 0.0063856263 -0.057107408 -1.614488
000390 02 a9 43 3c 38 63 01 bf a3 c3 c7 3d 06 fd db bc
       0.01194215 -0.5054202 0.097541116 -0.02685405
0003a0 ae d8 c6 3e ad 52 7b bb a4 94 5a bb ac b9 bc 3f
       0.38837188 -0.003834884 -0.0033352757 1.4744163
0003b0 f0 0a cd bd 6b 42 95 3d 6c 3c 2d bc b9 34 8e bf
       -0.10011852 0.07288059 -0.010573488 -1.110984
0003c0 99 64 37 3f 81 61 61 be 6d b7 eb 3d 57 fb 93 bf
       0.71637875 -0.22009851 0.11509595 -1.1561078
0003d0 b7 74 cd 3e 1a dc 3c 3f ce a8 20 bf 6b 49 85 3f
       0.4012811 0.7377335 -0.62757576 1.041303
0003e0 b6 b8 5a 3e ad e9 08 3f d8 59 b0 be 6e 2c e5 be
       0.21359524 0.5348156 -0.34443545 -0.4476046
0003f0 cb f1 3d be 8c da d5 bd 5f b9 92 3f a8 a8 21 3f
       -0.18549268 -0.10442075 1.1462821 0.63147974

advantage_stream.2.bias f4 [5]
000000 ba 0e 56 3e 11 52 4e bd 49 ea 5b 3d 06 75 8a be
       0.20904055 -0.050371233 0.05369023 -0.27042407
000010 66 4a 3e 3e
       0.18583068
