dueling_target_network.pth (torch, 152178 bytes, 11 tensors)

feature_layer.0.weight f4 [128, 25]
00000000: 472f 20be 7f5e 143e dece 54bc 2aea b0bd
00000010: c743 02bf 1b39 d4bc 286d 3ec0 e0dc d8bd
00000020: 4d19 063f 17b3 903d a630 e53d 6260 3b3f
00000030: 4b15 acbe d001 133f 12cb 9f3b 6ef7 0b3e
00000040: eb25 d3ba 2bbb a93e 55f5 c63e df4d 1cbf
00000050: eb23 c83d 5a8c 313e 6ce8 97bd a28d aa3e
00000060: 2371 9abd 69cc ccbc f4a8 2dbd d0f3 24bc
00000070: 90e4 ecbd 6d7f 123e 43fa 0dbe 63aa eabd
00000080: 0061 16be 98b6 17be 255b 193e 4cd5 6abd
00000090: c213 823d 0030 063c afa0 3e3e 6abe 9e3d
000000a0: ace9 01be 20ad 35bc a338 d2bd 80e0 e9bd
000000b0: b0d4 4bbe ea15 c43d c06e e9bc 2852 b83d
000000c0: 8099 b1bd 7b35 2e3e e12a 1b3e b037 5a3e
000000d0: 206f 9dbe 56f6 b2bd 0d7e 88bf 68e0 243e
000000e0: 4aec 563d b5ff cabe f302 093e 8c12 043f
000000f0: 26d6 413d dd87 1a3f 774c bebe 7f65 10bc
00000100: 4e94 a13f 201e 1ebe 3d16 e2bd a204 f2be
00000110: 686b 07bf 46a7 c23e 3051 0ebe 9aa6 3d3e
00000120: 4923 eb3e 8b5c 543e c931 63be d1ad 39be
00000130: bc49 a0bd 0e68 35be 9697 22be 0ac5 24be
00000140: ec30 2abe 8be1 eb3d 4f48 d53d e27a f33d
00000150: a8cc 183d 5451 3e3e 2e78 5c3d 4a0f 873d
00000160: de9d e6bd 20cb 563c 47a0 b83d 8a8a 81bd
00000170: 13c6 333e 9b06 97bd 403d 42be 9c06 97bd
00000180: c29c 27bd 78e2 66bd fbf2 6cbd 836f 0d3e
00000190: 061b ad3d 7fbc 07be a735 24be 867d eebd
000001a0: 57a6 d33d 1239 44be 34f8 46be d108 ce3d
000001b0: a740 9b3d 99f8 fc3d 6e68 243e 6bdc 3bbe
000001c0: 4f38 e6bd dfe6 363e 87d6 adbc 3baa 0cbe
000001d0: d63e 1a3e 5024 14be 5a0f 823d b63b bfbc
000001e0: c374 3c3d 510e a6bd 3685 363c 992e 023e
000001f0: edb2 223d 839c 453e c75a 9a3d 8f3b 0cbe
00000200: 0b4b 223e b78f d4bf f841 8abb 8347 1bc0
00000210: b0c3 0c3f 8377 febe a8d0 9b3e be4c 3bbe
00000220: f9ac 4abf afc0 0cbe a971 24bf 07eb 0240
00000230: 5bbd 443e d078 993e 2b71 343e 5dbc 2cbe
00000240: 7227 e93f 8147 eebd ffb5 493e f48c 6ebd
00000250: 8a19 9b3d 4d1c f33e e7b9 f2bd 83ca 9cbd
00000260: bb70 233e d847 f03c 3001 35be 8025 02bc
00000270: a874 cbbb a0d3 d3bb 2a27 a8bd 02ac b23d
00000280: 669c cc3d 3b09 0fbe 40ef febc 1d07 b0bd
00000290: 64c9 e2bd 35be 97bd f395 43be 61b4 fbb9
000002a0: 1217 813d 20cc 183d a0cf 58bd 10f4 dabd
000002b0: 9dc8 bdbd 8042 223b 93cb 063e 17a5 d63d
000002c0: 60eb ecbd 892d 4d3e 8b05 b3bc 75bc c8be
000002d0: e2ff 523e 594e 3f40 701b 843d 2d40 443f
000002e0: c1a6 0a3f 3e76 bebd 1199 1bbd 56ac 193e
000002f0: 5a43 d93e 8dfa 4a3f 167d 5a3d 130c 6dbf
00000300: c42c fc3c 719a a5be e2b5 a43f 93f3 f4bd
00000310: bb05 933e 5914 d0bc e3ae b23d 27bd 513e
00000320: cddd f73d 4214 6bbe 000c 133f e69f 8b3e
00000330: 54db 203e 5b06 cebd 5c83 9e3f 8464 02bc
00000340: 19e0 383e 7e64 9dbf 7599 833d 8b37 103e
00000350: 106e 6f3e 2b1a ddbe 155c 233f dfb4 043e
00000360: fb7f 17bf 9248 bcbe 9040 febe e6d4 47bf
00000370: 567c 47be 73e5 843e a6d1 0d3c 8a63 51bd
00000380: 120e 86be e3b4 d83d d729 15be 8690 953d
00000390: 4ce0 5dbe 383d 333e c8bf ddbc 0eea 073e
000003a0: 635e e43b 3cd6 743e ac48 0f3f 4222 a83d
000003b0: 5fe2 a63f 01a6 a63f 9fa6 0e3f d413 ae3f
000003c0: 98e1 343b 8f76 02be 9110 3d3c fdcc 9ebe
000003d0: 100d a23e 5d0b ccbd 15cf d53d 5760 cd3d
000003e0: 7873 2ebe 40cb 96bf b130 fd3d 4ac3 27bd
000003f0: 8b36 c83d fca6 433e 304a 71bf e02a 8a3d
-0.15643035 0.14489172 -0.012988774 -0.08638413 -0.5088467 -0.025906136 -2.9754124 -0.105890036
0.52382356 0.07065409 0.111909196 0.73193944 -0.33609995 0.5742464 0.004876503 0.13668606
-0.0016109323 0.3315061 0.38859048 -0.6105632 0.09772476 0.17338696 -0.07417378 0.33311182
-0.0754111 -0.024999814 -0.042397454 -0.010067895 -0.11567032 0.14306422 -0.13864999 -0.1145828
-0.1468544 -0.14815748 0.14976175 -0.057332322 0.06351425 0.008190155 0.18615983 0.07751162
-0.12686795 -0.0110886395 -0.10264709 -0.11419773 -0.19905353 0.09574492 -0.028495193 0.09000045
-0.08671856 0.17012589 0.15153076 0.21310306 -0.30748844 -0.08738391 -1.0663468 0.16101229
0.052471437 -0.39648214 0.13380031 0.515908 0.04732337 0.6036356 -0.37167713 -0.008813261
1.2623384 -0.1544118 -0.11039398 -0.4726916 -0.52898264 0.38018245 -0.13898158 0.18520585
0.45925358 0.20738427 -0.2218696 -0.18132712 -0.07826564 -0.17715475 -0.15878138 -0.1609079
-0.16620225 0.11517628 0.104141824 0.118886724 0.03730455 0.18585712 0.05382555 0.06594713
-0.112605795 0.013109952 0.090149455 -0.06325252 0.17556028 -0.07374307 -0.18968678 -0.073743075
-0.04092098 -0.05636832 -0.05784891 0.1381207 0.0845242 -0.132555 -0.16036092 -0.116450354
0.10334461 -0.19162396 -0.1943062 0.10060275 0.07580691 0.12352104 0.16055462 -0.18345802
-0.11241209 0.17861508 -0.021220459 -0.13736813 0.15063033 -0.14466977 0.06350584 -0.023343902
0.04600979 -0.081081994 0.011140158 0.12713088 0.03972142 0.19297986 0.07536846 -0.13694595
0.15848939 -1.6606358 -0.00421929 -2.4262397 0.54986095 -0.49700555 0.3043263 -0.18290994
-0.79170185 -0.13745378 -0.6423593 2.045595 0.19212858 0.29974985 0.17621295 -0.1686873
1.8215163 -0.11634732 0.19698332 -0.058239892 0.075732306 0.4748253 -0.11851864 -0.076558135
0.15960972 0.029331133 -0.17676234 -0.007943511 -0.006208975 -0.0064644367 -0.08210595 0.08724214
0.09990768 -0.13968365 -0.031119943 -0.08595107 -0.110735685 -0.07409326 -0.1910017 -0.00048008843
0.063032284 0.037304044 -0.05293238 -0.106910825 -0.092667796 0.0024758875 0.13163595 0.10480707
-0.11568332 0.20036902 -0.021853229 -0.3920628 0.20605424 2.989157 0.06450546 0.76660424
0.54160696 -0.09299897 -0.037987772 0.15007147 0.42434198 0.7928856 0.053341947 -0.9259655
0.030783065 -0.32344392 1.2868006 -0.119605206 0.2871531 -0.025400328 0.08724763 0.20482312
0.12102852 -0.22956946 0.57440186 0.2727043 0.15708667 -0.10059806 1.2383838 -0.007958535
0.18054236 -1.2296293 0.06425754 0.14083688 0.2338183 -0.43184027 0.6381238 0.12959622
-0.5917966 -0.36774117 -0.49658632 -0.7805923 -0.19481024 0.25956306 0.008655941 -0.05112032
-0.2618261 0.105813764 -0.14566742 0.07302956 -0.21667594 0.17503822 -0.027068987 0.13272879
0.0069692596 0.23909849 0.55970263 0.08209659 1.3037833 1.301941 0.55722994 1.3599801
0.0027600285 -0.12740539 0.011539594 -0.3101577 0.3165059 -0.09963105 0.104398884 0.10028141
-0.17036235 -1.1780777 0.12362803 -0.040957727 0.09776028 0.19106668 -0.94253826 0.06746459

feature_layer.0.bias f4 [128]
00000000: 98b9 26be 8c07 10bd 5329 12be 8d47 77bc
00000010: 6446 63bc 2c9b 35be 36de 0cbe 2b42 ad3d
00000020: 3d5b a0bd adfc d63d 591f 45bd ba62 3abe
00000030: 0a9b a3bd b81a 183e b81e 4dbd dd84 023e
00000040: 4898 0abe f619 cc3d 4a09 cebd 0ae1 15be
00000050: 89f2 0ebe 7319 9e3c 7248 2b3e d497 a53d
00000060: a30f 4bbe 8d23 0e3e d2cf 49be 33fa 9dbd
00000070: d858 1cbe b93e 153e 03fe f83d 305b 30bc
00000080: fe6a 823d 7323 45be 025b 14be 17cf 0a3e
00000090: fb1f 8e3d f3c9 b9bd dbd5 72be cc86 94bd
000000a0: 2ee2 ea3d c186 39be c048 243e 38cf ee3d
000000b0: 2e4f a3bb 2119 963d 0fdd afbc 4e87 593d
000000c0: 980d 2cbd e012 933d d2e8 30be 36d2 463c
000000d0: 6a70 31be c84d 3cbd d0da 2abc e5b7 4f3d
000000e0: 093b 5bbe 3021 c63d 5b40 c93b 0e3d 07bd
000000f0: 41e1 6fbd 6b31 23be cec9 333e ec1c d33d
00000100: 9cf4 643e 5c6c 77be 8e79 aa3d 7aa9 31be
00000110: 20d1 67be ce10 913d 5c2a 8d3d a073 493c
00000120: 0fd5 3dbe f8f2 2dbe d6db 663b 793c acbd
00000130: 9d0d c93d b9da eabd 8d26 a4bd 3846 013d
00000140: b711 67bd 2842 353e ea76 2bbe e4da 7fbd
00000150: cf02 96bc dcd2 653d f821 49bd 2d53 d1bd
00000160: 1ac4 1cbe 6c24 2abd 4ed6 c7bd c03d 673d
00000170: 1b9d 65bc aaa4 1e3d 452b 01be 5b0f 19be
00000180: 8c1e f83d 46e8 f63d 0876 41be b673 ba3d
00000190: 94f3 5dbe e095 12be 4a27 0cbe bc8a 483d
000001a0: f599 0bbe f254 2a3d c9ee 083e ec7b cfbd
000001b0: e611 343e 4a85 fa3d 749e ac3d 8d7b bd3d
000001c0: 1f58 093e c4d8 45be 576a 093e 70f4 ff3d
000001d0: 45fb a2bc 36ae 0e3e e450 33be 973b 25be
000001e0: 7ba1 193d 5279 49be c525 edbd 2424 44be
000001f0: 666c 32be 3e72 fc3d 4b33 2abe 7424 6b3d
-0.16281736 -0.035163447 -0.14273576 -0.015092743 -0.013871763 -0.17734975 -0.13756642 0.08459886
-0.07829902 0.10497413 -0.0481256 -0.18201724 -0.07988556 0.14853942 -0.050078124 0.12745996
-0.13534653 0.09965889 -0.100603655 -0.14636627 -0.13959707 0.019299245 0.16726854 0.080855995
-0.19830184 0.13880749 -0.19708183 -0.07713737 -0.15268266 0.14574708 0.12157824 -0.010763928
0.063680634 -0.19251804 -0.14487842 0.13555561 0.069396935 -0.09071722 -0.23714392 -0.07252273
0.114689216 -0.18117811 0.16043377 0.116606176 -0.004983804 0.07329012 -0.021467714 0.053107552
-0.04200515 0.071813345 -0.17276314 0.012135079 -0.17328039 -0.045972615 -0.0104281455 0.050712485
-0.21409239 0.09674299 0.006141705 -0.03301721 -0.05856443 -0.1593682 0.17557451 0.10308251
0.22358936 -0.2416243 0.08323966 -0.17349806 -0.22638369 0.07083283 0.06892845 0.012295634
-0.18538307 -0.16987216 0.0035226247 -0.08409972 0.0981705 -0.11467499 -0.080151655 0.031561106
-0.05641338 0.17701018 -0.16744581 -0.06246461 -0.018311886 0.056109294 -0.04910466 -0.10220943
-0.15309182 -0.04153864 -0.09757672 0.056455374 -0.014014508 0.038731255 -0.12614162 -0.14947264
0.12115201 0.120560214 -0.18892682 0.09104101 -0.21674949 -0.14314985 -0.13686863 0.048960432
-0.13632949 0.041584916 0.1337234 -0.10131058 0.17584953 0.12232454 0.0842866 0.09252081
0.13412522 -0.19320971 0.13419472 0.12497795 -0.019895205 0.13933644 -0.17511326 -0.16136013
0.037507515 -0.19675186 -0.115794696 -0.19154412 -0.17424163 0.123264775 -0.16621129 0.05740781

feature_layer.2.weight f4 [128, 128]
00000000: c097 af3c 83a7 933d fa85 94bc 7216 d4bc
00000010: 7d6f 09bd 2160 443d b4d0 ca3c cff1 913c
00000020: dba2 973c 476c 883d f4fa b2bc 86f7 94bd
00000030: 7757 60bd 431a 4fbc f3b7 61bd a6f8 51bc
00000040: a696 373d 3e86 f0bc ce04 5dbb 207c 713c
00000050: af06 fa3c 1c7f 46bd f8a4 ddbb eac1 7cbd
00000060: d046 b13c 567d 9a3b ab33 16bc ae7e 303d
00000070: a5cb 6e3c 3e25 3f3d 4aac 7d3d c093 093c
00000080: 3ef3 a33c 1e6d 49bd 04e0 ba3c 7252 fdbd
00000090: 03f5 cf3c ec7c a7bd e617 d2bd 8028 12bd
000000a0: 98cf 8b3c 1084 c83c 0f8b efbc a73c 713c
000000b0: 56d1 473d 1c45 17bd 8de4 0ebc f83d 4bbd
000000c0: 379d 79bd 5ee0 903d 5be7 963c 6f73 9b3d
000000d0: 508e 743c 3320 b2bd c948 8b3d bc59 8f3c
000000e0: 970e a4bd 8583 6dbc f8ee 7b3d 90fb 4abc
000000f0: 0c25 643c 6f73 1b3d c51d 193c 0fe4 2e3d
00000100: f0cd 08bd b29c 8bbc 6e41 c03b ef50 08bd
00000110: a536 2bbc 1b45 173c f2d9 cdbd 4108 8b3d
00000120: 3e91 1e3d 6dea a23d 4043 c1bc 3171 d6bd
00000130: d8fa c1bd fb47 3bbd a91b 9b3d 8676 a3bd
00000140: 91c8 e8bd 0ae7 c3bb 145b 88bd 9eea 483d
00000150: b7b2 40bd 11c7 ba3b 754b f7bd 5661 7b3d
00000160: 2823 78bd 4144 77bd 606d 803c 9d8a 64bd
00000170: e0da b8bd 5ddb 18bc e4da 7fbc d635 f8bd
00000180: 8fb6 a4bd d7d9 5cbd 2150 ad3d 94bf 8dbd
00000190: bf8c b8bc a875 fabc f64f 48bd 3a96 f3bc
000001a0: 0e7e 23bd 369b 243d 46db eebd c689 a33b
000001b0: 3f1a 08be 8382 1fbc 0a64 44bd 3895 a5bd
000001c0: d92c 9dbd a95b 813c d2f5 023c 5f86 cabd
000001d0: 93dd cf3b e848 a63c e2f8 143d a3d6 1ebd
000001e0: e318 593c a4ae 33bd 8ced 89bc 6145 153b
000001f0: 2bc8 b2bd dca2 97bc c908 2cbd f205 a2bd
00000200: 8d05 d33e 10c7 07bc 8536 273e 3224 433d
00000210: 2e76 87bd 67ee 4d3e 0cd8 c53c 1719 bdbf
00000220: 0947 123e 7042 5e3c 4165 10bf 2bf5 95bb
00000230: 93a9 9f3c d8bb 913d 8c9c 8e3c 9dd5 833e
00000240: 5786 3dbe 9d9b 12bd 9693 363e 609c 9dbb
00000250: 6de8 713e 82e7 c9bf d7de 1cbb 3e91 40bf
00000260: cb1c ab3d ccf8 ddbd af89 e63b fe64 303d
00000270: 51fc bcbf 997a 983d f9ab 493e 7fd9 b23d
00000280: 5977 93bd 59f6 a1bd 5091 a53d 1aae 843e
00000290: d9ba 873e 14a8 92bc 81de 88be 2133 703d
000002a0: d429 babc ae4a 95bd cd60 2cbf 5758 0cbe
000002b0: 4368 97bd 39ed 99bf ee42 5ebe fbc9 793e
000002c0: bb46 e73d 308d b6bc 9bf6 52bd dfd0 a13e
000002d0: b4fd d1bc 7555 8b3e a389 91bd 5c80 9ebf
000002e0: 8919 4bbd 15b5 91be 5c4e 87bd c88a 3fbe
000002f0: 4fd4 aa3d c089 5f3d 1b76 5c3e 616e aa3d
00000300: aa2b 8b3e bb71 4ebf 57f2 88be 7504 2ebe
00000310: a3bf c83d 4905 9cbd 9dbd 1fbf 4268 9cbd
00000320: 280e 16bc 54d9 e3bc 6093 7d3e 9f0c 9e3e
00000330: ee9b 623c 37e0 5d3d 0733 9f3d 8b09 7bbd
00000340: 8452 bdbd 7b46 3e3d 9104 8f3d d3de 813d
00000350: bb3b a73d f581 5fbe d85e 19bf adf3 4ebd
00000360: 6c3c 83bd 6b09 1fbd 0c21 233e d29b 31be
00000370: 87ba aebd e446 093e 57da 613e 85b9 4d3e
00000380: fc67 3a3e eda0 073d 063a 7c3d c0fd 233f
00000390: fa9b 09bd 78e8 eabc 6a31 d13d 400d 7abf
000003a0: 3487 7b3e 96a3 3a3e 3450 893d 60cd bd3c
000003b0: f355 93be 3c07 f6bb 0933 f6bd aa74 c33e
000003c0: d830 213c 19aa 6f3e a21c 8c3e f6d3 3a3e
000003d0: fe69 303f 29e7 0cbe 0538 a1bd b404 623e
000003e0: da23 c1be eaa5 cdbe 8a30 bbbc 18b5 033e
000003f0: 7738 6cbf a53b 88be 5bfd 8c3d 178b 9e3d
0.021434665 0.07209685 -0.018130291 -0.025889609 -0.03355359 0.04794324 0.02475772 0.017815499
0.018510273 0.06661277 -0.02184818 -0.07273774 -0.054770913 -0.012640539 -0.05510707 -0.01281563
0.044821404 -0.029360887 -0.0033724788 0.014739066 0.030520765 -0.048461065 -0.0067640506 -0.06170837
0.021640211 0.0047146482 -0.009167592 0.04308956 0.01457492 0.046666376 0.061931886 0.008397043
0.020013448 -0.049176328 0.022811897 -0.12369241 0.025385385 -0.08178124 -0.102584645 -0.035683155
0.017066762 0.024477035 -0.029241113 0.014723933 0.048783623 -0.036931142 -0.008721483 -0.049619645
-0.060940947 0.07074045 0.018420866 0.075903766 0.014926508 -0.08697548 0.06800992 0.017498843
-0.08010595 -0.014496689 0.061507195 -0.012389079 0.013924848 0.037951883 0.0093454765 0.042697962
-0.033399522 -0.017042492 0.005867175 -0.03328031 -0.01045004 0.009232785 -0.100513354 0.06788684
0.038712732 0.079548694 -0.023591638 -0.10470808 -0.09471673 -0.045722943 0.07573635 -0.07981591
-0.1136638 -0.0059784697 -0.06657997 0.049051873 -0.047045436 0.0057 -0.12074939 0.061372124
-0.060580403 -0.060367826 0.015677154 -0.055796254 -0.09026122 -0.009329644 -0.015616152 -0.121196434
-0.08042633 -0.053918686 0.08462549 -0.06921306 -0.02252805 -0.030573681 -0.04890438 -0.02973472
-0.039915137 0.040187083 -0.11662917 0.004990789 -0.13291262 -0.009735706 -0.047946967 -0.08085102
-0.0767457 0.015790777 0.007993178 -0.098889105 0.0063435524 0.020298436 0.036370166 -0.038778912
0.013250562 -0.043867722 -0.016836904 0.0022776949 -0.08729585 -0.018510275 -0.042000566 -0.0791129
0.41215172 -0.008287206 0.16329391 0.04764194 -0.06614338 0.20110475 0.02415087 -1.4773282
0.1428491 0.013565645 -0.564045 -0.0045763454 0.019490039 0.071159065 0.017408632 0.25748911
-0.18508278 -0.035792936 0.17829737 -0.004809901 0.2362382 -1.5773776 -0.0023936534 -0.7522162
0.08355101 -0.1083847 0.007035456 0.043065064 -1.4764501 0.07445259 0.19694509 0.0873289
-0.07200498 -0.07908315 0.08084357 0.2591408 0.2650974 -0.017902412 -0.26732257 0.05864251
-0.022725023 -0.07289635 -0.67335206 -0.13705574 -0.07392933 -1.202552 -0.21705219 0.24393456
0.11292788 -0.02228412 -0.051504713 0.31604668 -0.02563367 0.27213636 -0.0710633 -1.2382922
-0.0495849 -0.28458467 -0.06606743 -0.18705285 0.08341276 0.054574728 0.21529429 0.08321834
0.2718175 -0.8064229 -0.2674739 -0.16993888 0.09802177 -0.076181956 -0.623987 -0.07637073
-0.009158649 -0.027813591 0.2476325 0.30869004 0.013831122 0.054168906 0.077734046 -0.061288398
-0.09244254 0.046453934 0.06983293 0.063413285 0.081656896 -0.21826918 -0.59910345 -0.050525356
-0.06408009 -0.03882734 0.15930575 -0.17344597 -0.08531671 0.13405949 0.22055946 0.20090301
0.1820373 0.033112455 0.061578773 0.64059067 -0.033596016 -0.028675303 0.10214503 -0.9767647
0.24563295 0.18226466 0.06704751 0.02316922 -0.28776512 -0.0075081866 -0.12021453 0.38174945
0.009838305 0.23404731 0.27365595 0.18244919 0.6891173 -0.13760056 -0.07872013 0.22072107
-0.37722665 -0.40165645 -0.022850294 0.1286205 -0.9227366 -0.26608005 0.06884261 0.07741373

feature_layer.2.bias f4 [128]
00000000: 5c03 04be e004 f0bc 3c29 e83d acd3 1f3c
00000010: 203a 553e 28b2 f6bc deb4 dbbd a5b3 abbd
00000020: c7a5 10be e3c3 b63e a476 45be 1fff 523e
00000030: 7ab7 8d3e 3396 603e 6ef0 5b3d 4ccd 62bd
00000040: d14e 7bbc 26fc b6bd 14e6 ebbd a6d0 f23e
00000050: 86fe 773d 59d2 afbd d9ab 55bd 2afe 1f3e
00000060: c0f0 133e d57c 473e b33b 5b3e 9d5b 253d
00000070: 59b9 613d 30b3 debb 5fe0 90bd 0d86 f7bc
00000080: bba0 8c3a 0e4c 48bc bbdd 31be c9e7 3e3e
00000090: 2109 05be 9c74 0cbe 8afc 8abd ce80 8fbd
000000a0: f7de 9bbc b666 b83d 3ab2 e0bc 2f4d a63e
000000b0: 3ea2 a63d bfd8 b83e 4a9f b1bd b438 0bbd
000000c0: 4a3e 9ebc 9454 a23e 18b9 aebc 13c0 bc3d
000000d0: e904 a1bd b995 ccbc 347d 8f3d 2bfa eb3d
000000e0: 9a8e 223e c01a 2fbd d30e a83d 808b fabd
000000f0: 5922 693e 76c1 843d bfd5 883c ebf1 82bd
00000100: a75d 623e cc9e e73d 419c 00be 55c3 c7bd
00000110: a737 f9bd e36a 373e 7021 583c 7be3 3a3e
00000120: 17ee e5bd 0621 acbd 80ec 063e 9891 e73c
00000130: 3544 75bd fbd5 b1bd a360 443e 388d 363e
00000140: 4ea3 a2bc 474c f1bd b785 ddbd 369a 453d
00000150: 6c65 94be 2665 1d3d 62cd 8c3c 195f e8bd
00000160: 64be 273e c2f2 e73c ad32 8fbd 50fc 713e
00000170: 3334 eb3e ca60 b1bd 670a 153e e350 b33c
00000180: 1ae5 8abd 3bd6 bc3e 4eb0 eebd 71f1 843e
00000190: 3347 96bd 99f1 afbd 0c2b 5dbc 0eeb 4abd
000001a0: 83bc e63c a1e9 693b 2ae1 7cbd 43ca b1bd
000001b0: 942d ed3c fe23 fd3d a515 0c3e febd b5bd
000001c0: c8f7 303e c11b fd3c a00d e5bd a36f 8cbd
000001d0: e92d 8fbb 420d 083d ec86 46bd 138c ea3d
000001e0: 45e4 bd3d 2947 2cbd 1405 5b3d aa62 113e
000001f0: 6310 ef3e c114 b0bc 892c 13bd 3b9f 95bd
-0.12891906 -0.0292992 0.1133599 0.009755056 0.20822954 -0.030114248 -0.10727857 -0.08383874
-0.14125739 0.35696325 -0.19283539 0.20605133 0.27679044 0.21932296 0.05369609 -0.055371568
-0.0153386155 -0.08934812 -0.11518493 0.4742481 0.060545467 -0.085850425 -0.05216584 0.156243
0.14447308 0.19481213 0.21409492 0.040370572 0.055108402 -0.006796263 -0.070740454 -0.030215288
0.0010729054 -0.012225164 -0.1736974 0.18643107 -0.12991764 -0.13716358 -0.06786449 -0.070069894
-0.019027216 0.090039656 -0.027428735 0.3248076 0.08136414 0.36102864 -0.0867296 -0.033989623
-0.019316811 0.31705153 -0.021328494 0.09216323 -0.07862265 -0.024973737 0.070063025 0.11522325
0.1587471 -0.04275012 0.082059525 -0.12233639 0.22767009 0.06482212 0.016703485 -0.063937984
0.22106038 0.11309585 -0.12559606 -0.097540535 -0.12168818 0.17911868 0.013191566 0.1825084
-0.11227053 -0.08404736 0.13176155 0.028267667 -0.0598795 -0.08683392 0.19177489 0.17827308
-0.01985326 -0.11782127 -0.1081652 0.04824277 -0.2898363 0.03842654 0.017187778 -0.113462634
0.16381222 0.028313998 -0.069920875 0.23631406 0.45938262 -0.08661039 0.1455475 0.021889156
-0.06781979 0.36882195 -0.11654721 0.25965455 -0.07337799 -0.08591003 -0.013499033 -0.049540572
0.028166061 0.0035692232 -0.06173817 -0.086811565 0.028952397 0.123603806 0.13680132 -0.08874129
0.17282021 0.030897023 -0.111842394 -0.068572305 -0.0043694866 0.03321577 -0.048468515 0.11452498
0.092720546 -0.04206005 0.05347164 0.14197794 0.4669219 -0.021494271 -0.035931144 -0.073057614

value_stream.0.weight f4 [64, 128]
00000000: 10a8 063d fa7a 383e 7744 2bbd f981 87bf
00000010: c323 49be 987f 17be 41d0 303d 520f f43c
00000020: e418 b33c d65d 05be 39fb b83d ad23 2d3f
00000030: 2d12 21be 2605 d6be 76be 5ebe 71ec 71bd
00000040: a674 1c3d 7a39 a6bc 40c7 753c f150 85be
00000050: 35c0 873d 7e1f 703d db87 13c0 ec5b d5bc
00000060: 4a0b aabe fdac 6ebd 6b87 aebe 71a3 9ebe
00000070: 582e 3c3d 7999 963e 0829 2dbd 1038 a73b
00000080: 2fed b6be 9ba1 993d 7b66 793c d31a 9b3e
00000090: 2b8e 88be dcab c3bf 374e 92bd 3b3a d83c
000000a0: 5092 44be e94c a3be 309f f0bc 673d 98be
000000b0: dd3b 783e d846 803b af05 843d e8b6 e93b
000000c0: 5244 8fbd 5357 ecbd 503d 5ebb ac69 d73e
000000d0: b8cf 123d 252a 06bd 96ef aa3e bf99 e73f
000000e0: b54a 59be 765e 393d 0730 063f 7084 ef3c
000000f0: c0d9 38bd a225 3abf 78aa a3bd e0b3 d4bc
00000100: 998b a1be 455e 10be 0530 17bd efdf 5fbd
00000110: e39b 58bd bfc7 f8bd 6053 5dbd c0d7 d13d
00000120: 37b7 91bd 009e 86b9 6c37 c1bc f846 a2bd
00000130: dba2 1f3e 7ce7 8fbd 6f36 3abc 1ca6 203e
00000140: 30cd 81bb ee27 933d 6856 3dbc a688 54bd
00000150: e1a6 b53e 43a9 133e b398 613d 9a81 593d
00000160: edf3 eabd 74d3 9f3d 248e 753d d3be 51be
00000170: 30c4 993d 3c66 343d 6ed0 46be e0bb 0e3d
00000180: 0050 e93c f35b a4be 4e15 2c3d 41ad 18bc
00000190: be82 90bd 318d 67bd 4be1 c53d 3f1c a8bd
000001a0: 77f8 3cbd 6d85 98bb 97fd 2dbc 8088 f83b
000001b0: 0a96 1f3d c2e2 513b e900 683d 5a6e 653d
000001c0: bf4e 8dbe 7ead 66bd 5c24 3dbd d015 8c3b
000001d0: 8f35 823e 7ef9 f63e a093 543b 83af bf3d
000001e0: 58fb 073d eaa7 2c3d 2532 5ab9 47f9 f73e
000001f0: 2269 3bbe 1909 4cbd a3b8 2fbf 69d5 6abd
00000200: 2cbc 343d 33c2 d5be 2220 d8bd 4b95 0b3f
00000210: b20d 4e3f 19f0 45be d79a ab3d 1020 bebc
00000220: a61f 363b f3da ef3b 075b db3d d292 583f
00000230: 46b6 953e 1a52 aabd b8fc 20be eddf 85bc
00000240: 0f19 663c 7bcf a43e f0cd 88bd dce8 8fbe
00000250: c823 3ebb 3629 9b3c 8f7b 163f 0e8d 9bbd
00000260: 0d23 d8be cb83 8abd 238a 2fbf ca7a b93e
00000270: 33c5 6e3e f67c 68be df36 543d 147d 63bd
00000280: 47bd f0be 5c67 a73c 9f5b b33d 4194 0dbf
00000290: 758f e1be 0270 0e3f 069e ac3d c42c 68bd
000002a0: 8e7c 413e 4580 5dbf 28e9 573c e17f 33be
000002b0: 387f bf3e d103 04bf 49f7 14bd e31c a83d
000002c0: 1e21 5d3d 2575 0ebf 0f89 9abc 0fa6 36be
000002d0: a5cf 18bd 86ed a2bd ac2c f23e e0ae be3d
000002e0: 8ed4 a83e c1ad 1d3d 89b9 a83e 1182 84bd
000002f0: 5e32 07bd a719 5cbe 7801 4cbd 090e 28bd
00000300: c3db 88bf df79 fb3d f1f5 ba3c 9af7 60bd
00000310: d256 96bd c7db 1e3d 0a38 a4be 606f 043e
00000320: c797 993d 9b6d 933d 4638 a5bd e6ad 4d3e
00000330: 9df9 623d dd85 a33b 2599 38bf 36b5 b43d
00000340: c539 953d e853 27bc 601f b8bd a427 533d
00000350: 7cbb 28bf f283 003e 7a2c 753d c9ab 56bd
00000360: e53d 4a3e 03ae 8d3f 3e15 10bd 0c29 19bf
00000370: 00de a8be 8478 763d af48 d6be cef3 e63c
00000380: 9892 093d cf06 a2be a808 3c3c 85d7 1a3e
00000390: 91a6 7c3c 4202 723d f311 00be 4807 6ebf
000003a0: b2f7 94be 9ed8 2cbb 72c8 5d3d 2f97 97bd
000003b0: 7d58 51bd 9915 623e 7fbd 423f f898 3e3c
000003c0: 4b0f 58be 43b3 3c3c 7e9e 473e 374b 87bd
000003d0: 2d54 06bf 0f11 7ebc 860b e53d 0d5a 97be
000003e0: b170 91bf 9ab4 a7bd 537f 28bd 9907 d53e
000003f0: e2dd 5fbe 1ab8 273b 256b 8f3f 69cc 4c3b
0.03287512 0.18015662 -0.04181334 -1.058654 -0.19642548 -0.14794767 0.043167356 0.029792462
0.021862455 -0.13024077 0.09032292 0.6763256 -0.1572959 -0.41800803 -0.21752343 -0.05906338
0.038197182 -0.020291079 0.015001118 -0.26038316 0.066284575 0.058623783 -2.305167 -0.026044808
-0.33211738 -0.058270443 -0.3408769 -0.3098407 0.045942634 0.29413965 -0.04227546 0.0051031187
-0.35727832 0.07501527 0.015222187 0.30293903 -0.26670966 -1.5286822 -0.071438245 0.026394954
-0.19196439 -0.31894615 -0.029372782 -0.29734346 0.24241586 0.0039146952 0.064463966 0.0071324
-0.06995453 -0.11540093 -0.0033911057 0.4207281 0.035842627 -0.032755036 0.33385915 1.8093795
-0.21219905 0.0452561 0.52417034 0.029237956 -0.045129538 -0.72713673 -0.07991499 -0.025964677
-0.31551817 -0.14098461 -0.03691103 -0.05465692 -0.05288304 -0.121474735 -0.05403459 0.10246229
-0.071150236 -0.0002567619 -0.023585998 -0.079236925 0.15589468 -0.07026574 -0.011365517 0.15688366
-0.003961228 0.0718535 -0.011556245 -0.05188813 0.3547888 0.14420037 0.055077266 0.053102113
-0.114723064 0.07804003 0.05995001 -0.2048295 0.07508123 0.04404281 -0.19415447 0.03484714
0.02848053 -0.32101402 0.042012505 -0.009318651 -0.07056187 -0.056531135 0.09662112 -0.082085125
-0.046135392 -0.0046545775 -0.010619543 0.0075846314 0.038961448 0.0032026027 0.056641493 0.056013443
-0.2759914 -0.0563178 -0.046177253 0.004275061 0.25431487 0.48237222 0.0032436624 0.09359648
0.033198684 0.042152323 -0.0002080878 0.4843237 -0.18301824 -0.049813364 -0.6864111 -0.05733243
0.044124767 -0.41749725 -0.10553004 0.5452468 0.8048965 -0.19329871 0.08379143 -0.023208648
0.002778986 0.007319802 0.107107215 0.8459903 0.29240626 -0.08316441 -0.15721405 -0.016342128
0.01404406 0.32189545 -0.066799045 -0.28107345 -0.0029013027 0.01894055 0.58782285 -0.075952634
-0.42214242 -0.06763419 -0.68570155 0.36226493 0.23317413 -0.22703919 0.05181014 -0.055539206
-0.47019407 0.020435028 0.0875771 -0.5530434 -0.44054762 0.5563966 0.08428578 -0.056683317
0.1889517 -0.8652385 0.013178147 -0.1752925 0.37401748 -0.51568323 -0.036368642 0.08208635
0.05398666 -0.556475 -0.018864183 -0.17836784 -0.0373074 -0.0795546 0.47299707 0.093106985
0.32974666 0.038495783 0.32954052 -0.06470121 -0.03300702 -0.2149416 -0.04980609 -0.04102901
-1.0692066 0.122791044 0.022822352 -0.05492363 -0.073407784 0.038783815 -0.32074004 0.12933111
0.07499652 0.0719864 -0.08067374 0.20085868 0.05541383 0.004990323 -0.7210868 0.08823626
0.07286409 -0.010212876 -0.08990359 0.051551476 -0.6591108 0.12550333 0.05985687 -0.05240992
0.19750173 1.1068729 -0.035176508 -0.5982826 -0.32981873 0.060173526 -0.41852328 0.028192427
0.03358707 -0.3164582 0.011476673 0.15121277 0.015420572 0.059084184 -0.12506847 -0.9297986
-0.29095227 -0.002637423 0.054146238 -0.07401883 -0.05110978 0.22078551 0.760704 0.01163315
-0.21099584 0.011517349 0.19494054 -0.06606143 -0.5247219 -0.015506997 0.111838385 -0.2956089
-1.1362516 -0.08188744 -0.04113705 0.4160736 -0.21861985 0.002559191 1.1204573 0.0031249768

value_stream.0.bias f4 [64]
00000000: c18c cfbe db0b 993d bcce a7be 892a f13e
00000010: 7b56 edbd 0075 f13e ace5 333d efc4 66bc
00000020: c914 eb3e f1b5 a03e b5f0 db3e b40f e3bd
00000030: a66f 533d 924a 613d 0e3b d2bd 41b0 d93e
00000040: 1c6e 5f3d b592 ed3e 0a46 02be 911e 95bd
00000050: 6148 d1be b183 f53e ced5 023f 8ae9 9c3e
00000060: 481c fe3e c1ed cbbd 9b67 2d3d 4dce e43d
00000070: e12e 00be 7bc3 b33e 470c e73e 2a5e 983d
00000080: aff7 b63e 7b7c c23e b5cf b4bb 3db0 ff3e
00000090: 2ab3 fe3e 5a04 df3e a415 46bd 4415 b03e
000000a0: ad6c b13e 4ae0 f3bd 5d1b f73e 19f7 c7be
000000b0: 0ffb a3bd 557a f7bd e364 e33e d568 5abd
000000c0: 6ff8 efbd ee34 3f3d 82b3 ea3e 2125 d63e
000000d0: 0899 013f c7a1 e6bd 87a1 bb3e e3fa 973e
000000e0: c9f7 ca3e 1397 db3e 40b1 85bd 7eb7 0fbd
000000f0: 4bd6 ed3e 37a1 a3bb 142d c6bd f675 3f3c
-0.40537074 0.074729644 -0.32774913 0.47102764 -0.115887605 0.47159576 0.043920204 -0.014085039
0.45914295 0.3138881 0.42957082 -0.110869795 0.051620148 0.055002756 -0.1026517 0.42517284
0.054548368 0.4640099 -0.1272203 -0.07281221 -0.40875533 0.47952035 0.5110749 0.30646926
0.49630952 -0.09957457 0.042335134 0.11172161 -0.12517883 0.35110077 0.45126554 0.07439835
0.35735843 0.37985596 -0.0055179247 0.49939147 0.49746066 0.43558007 -0.04836048 0.34391224
0.34653226 -0.11908014 0.48263064 -0.39055708 -0.0800687 -0.1208388 0.44412908 -0.053322632
-0.11717307 0.046681337 0.4584008 0.41825202 0.5062413 -0.11261325 0.36646673 0.296836
0.3964217 0.42888698 -0.065279484 -0.0350871 0.46452555 -0.0049935835 -0.09676567 0.011685839

value_stream.2.weight f4 [1, 64]
00000000: 1301 b7bf 7f06 af3f 565e 85bf 3078 833e
00000010: 31fe cfbc d167 843e ee25 123f 4567 90bd
00000020: 4c7d 763e d33f 1d3e 6c77 653e 30d3 703b
00000030: 6f8b 5ebd e15c b1bd 318d 43bc 572b 063e
00000040: 413a 44c0 c0db 5b3e 9586 2cbd cb4d 673c
00000050: 4b7f 30bf 109a a83e 1aee 783e 74b4 8d3f
00000060: b1bf 893e e816 cbbc 49ed 1fc0 d98a 01c0
00000070: 7161 9ebd a0a9 3e3e 55d2 063f ac83 fbbc
00000080: bb99 8f3e e676 813e e9ec 8abc 7371 693e
00000090: baf1 3b3e c442 623e 475b 923d db87 453f
000000a0: 5c64 573e 79fa 98ba 6d76 6b3e bd6d 42bf
000000b0: d374 583d f25c 4d3c 6add 633e af9d 12bd
000000c0: aa44 8cbd 57e3 d2bd 2116 153e cb98 253e
000000d0: b4d2 533e 83dd b3bd 728e 703e e922 c7bf
000000e0: 52b5 3c3e 567f 273e 2eb0 153c 172b 38bd
000000f0: e503 4e3e 0dda 3ebc 00fa 803c 2999 f2bf
-1.4297203 1.3673857 -1.0419414 0.25677633 -0.025389763 0.25860456 0.57089126 -0.07050947
0.24071234 0.15356378 0.22408837 0.0036746971 -0.054332193 -0.08660293 -0.011935518 0.1310247
-3.0660555 0.21470547 -0.042120535 0.014117668 -0.68944234 0.3293004 0.24309579 1.1070695
0.2690406 -0.024791196 -2.4988577 -2.0240996 -0.07733429 0.18619394 0.5266469 -0.030702434
0.28046975 0.25286025 -0.01695867 0.22797184 0.1835393 0.22095782 0.07146316 0.77160424
0.21034378 -0.0011671326 0.22994395 -0.759487 0.052845787 0.012534367 0.22252432 -0.03579491
-0.06849034 -0.10297268 0.14559223 0.16171567 0.20685846 -0.087824844 0.23491839 -1.5557529
0.18428543 0.16357169 0.009136243 -0.04496297 0.20118673 -0.011648667 0.01574421 -1.8952991

advantage_stream.0.weight f4 [64, 128]
00000000: 5960 a6b9 3b89 913e 5bbb 11bf 85b0 103f
00000010: e6ba 31bf f3d8 043e d099 913c 94b5 643d
00000020: 5e20 bfbd 9191 543d feff c7be 0a2e 76ba
00000030: ca70 0d3e ee21 ad3e cf65 ebbf f272 3b3c
00000040: c123 abbd c6bf 94bf 4fe7 41bd 87c2 153e
00000050: 16d7 95be 5788 913c af96 d33d 1d29 993e
00000060: f52b 90bd 7dd0 f1bc d885 34be 1975 85bd
00000070: 5b1c d4be aeae 07be 0de5 b5bc d5c7 183d
00000080: 4aa0 77bd b324 03be 1691 59bf 0650 62bd
00000090: 1b7c a13f 9db0 95bd 25c0 3bbd a0cc 2ebd
000000a0: 73fc 1fbe 8f14 d6be 10a0 d63c 394a b83d
000000b0: 1f8d 983e 9f6e 2a3d 5c7a 05bd 6a83 68be
000000c0: 7433 b43b 88c9 0c3e 7567 e4ba 1e37 863e
000000d0: 86e9 78bd 8344 c6bc 04d1 543e 87e8 3f3d
000000e0: a31c 5ebf 1a64 603d a49f 173f a18e d53c
000000f0: 6e5d 84bd 04df 423e a504 60bd 0bbd 033d
00000100: 09b2 d63d 21c9 ddbe 749f 3ebd 3e86 793d
00000110: 22ab e9bd 36a8 ef3d af1a e6be cbe7 e3be
00000120: 40de eaba 4192 d73c d6c7 ba3c 16e4 92bd
00000130: 1148 febe 3a19 f33c 379e 64bf 6a94 103e
00000140: 99b1 813d 58a3 ccbe be33 f9bc 48ec f3bd
00000150: 0ad9 17bf 1d19 1dbf 1bea 823d e28e 8cbd
00000160: fd00 123f a02e 873d 8b35 33bc 7721 a03d
00000170: e250 bd3d b7df a3bc 29c9 133e e39f 82bc
00000180: 0deb b43b b835 2e3e a374 04bd 801d 943e
00000190: 3e0f 91bd 0dbe d13d 88f9 9f3e 4928 cb3c
000001a0: cc74 913e 2be4 1f3d 6716 a43c a259 9e3d
000001b0: 01a6 39bc 48fe f83e bd27 253f 4454 9fbc
000001c0: a9c6 0a3e 694c 8bbd 8387 d0be 5fcf 9a3b
000001d0: 2140 2dbf 17bc f83d f428 afbc ff8a 7bbe
000001e0: 59ff e0be d49b bcbd e6f3 903d 7c44 7dbf
000001f0: d318 b03e 0a93 7cbd 161f ee3c 21c5 01bd
00000200: 35b2 993d 0bb9 bebd 603e 013e 2eca e53e
00000210: 0e0a acbf 41f2 b1bd 40ed b03a af1b 1abd
00000220: 4eca 06bd 7f48 8f3e cf01 f7be 8f37 b43e
00000230: 9480 08be e078 b43e 151c 03bf 3ba6 623c
00000240: 0c37 ba3c 6dee 62bf b12a 82bd a4ca f43d
00000250: 6e97 30bf 841b 0d3e d014 1dbd d40b 243e
00000260: 87ab a1be 4c01 673d bdf3 95bc af3d 0b3d
00000270: 9776 2dbe d366 233c 9232 9e3d 1394 d83d
00000280: 7d8f acbc 7ada 823d 10bb 8ebe ca7c 22be
00000290: 26dc 363f 1b43 ce3e 7476 05bd 2ba6 463d
000002a0: b65f 0d3f 4292 053f 78c1 f1bb 12cb 6e3e
000002b0: e89e ee3e 2ce5 303e 0217 bcbc 0c50 23bf
000002c0: 7fce 4b3b 0119 703e 2613 913d c701 6b3f
000002d0: 3f21 55bc c1fd 3abd 088d 7d3e 0d40 10be
000002e0: 35e6 32bf 82c2 4d3d 123a 363e 14c6 b33d
000002f0: fcaa deba 6b3a 833d 805b 7d3b 0c14 6e3c
00000300: 86bc c43d e1c5 12bf 06bf 91bc d7f0 913d
00000310: 5600 9abd b9cc 07bd b606 b2be c8b5 c3bd
00000320: 0032 1fba 03fb 4ebd c8db 8d3e f2ca 373e
00000330: 8c4a 42be 99fc 26bc 9727 ec3e c63b 703e
00000340: c2db ce3c 0cf6 62be 8e62 5dbc 4778 093d
00000350: d521 eabe d97c 41bf 2f22 c0bc 74c7 a93c
00000360: 048c 2abe 0406 3fbe 2907 133d 19b6 b13d
00000370: dd98 283e 8227 0b3e e0a3 863e d28b 4dbb
00000380: 6938 d7bc 5177 dc3e 5e04 523d 8ba1 153d
00000390: c734 d53c b409 64bc de62 9e3e 079c 02be
000003a0: d370 b23d d253 733d 7c96 aabb 5457 3d3a
000003b0: fd35 3ebd 9c5b fbbe 596f ffbd e101 9d3d
000003c0: 7a65 4d3e c186 393b 754e 273f bbdd 9539
000003d0: 961c 39bf 7858 2a3f 554b a9bd a0df 30bd
000003e0: a58b 98bf b55d aebd cd48 b53d ddf5 e63e
000003f0: b1c2 8e3e 5f46 9c3c a459 3c3e 4c98 2b3d
-0.00031733772 0.2842501 -0.56926507 0.5651935 -0.6942581 0.12973385 0.017773539 0.05583723
-0.093323454 0.051896635 -0.39062494 -0.00093910156 0.13812557 0.3381495 -1.8390445 0.011440979
-0.08356429 -1.1621025 -0.047339734 0.14624988 -0.2926566 0.017765207 0.10331475 0.2991418
-0.07039634 -0.02951836 -0.17629182 -0.06516475 -0.41427884 -0.13250229 -0.022203946 0.03729995
-0.060455598 -0.12806968 -0.8498701 -0.055252098 1.2615999 -0.07309077 -0.04583754 -0.042675614
-0.15623645 -0.4181256 0.02619937 0.08998532 0.29795167 0.041609403 -0.032587394 -0.2270638
0.0054992978 0.13748753 -0.0017425852 0.26213926 -0.06076958 -0.02420259 0.20782858 0.046852615
-0.86762446 0.054782964 0.5922797 0.026068987 -0.06463133 0.19030386 -0.05469193 0.032162707
0.10483176 -0.43317512 -0.046538785 0.06091904 -0.11409594 0.117020056 -0.44942233 -0.44512782
-0.0017919019 0.026314856 0.022800367 -0.0717241 -0.49664357 0.029675115 -0.89303917 0.14119115
0.06332702 -0.3996837 -0.03042018 -0.119103014 -0.5931555 -0.61366445 0.06392308 -0.0686319
0.5703276 0.0660069 -0.010938059 0.07818883 0.09243943 -0.020004136 0.14432205 -0.01594538
0.0055211843 0.1701268 -0.032337796 0.28928757 -0.07082985 0.102413274 0.31245065 0.024799483
0.2840942 0.039035957 0.020030214 0.0773194 -0.011331082 0.486315 0.6451376 -0.01944936
0.13552345 -0.068016835 -0.40728387 0.0047244276 -0.6767598 0.1214525 -0.021381833 -0.24564742
-0.43944815 -0.09209409 0.0707777 -0.98932624 0.3439394 -0.061663665 0.029067557 -0.031682137
0.075046934 -0.09312638 0.1262145 0.44880813 -1.3440568 -0.086887844 0.001349844 -0.037624057
-0.032907777 0.27984998 -0.48243567 0.35198638 -0.13330299 0.3524847 -0.51214725 0.013833578
0.022731327 -0.8864506 -0.06355799 0.11952713 -0.68981063 0.13780028 -0.038349926 0.16020137
-0.31576177 0.05639772 -0.0183047 0.033994373 -0.1693977 0.009973246 0.07724489 0.10575118
-0.021064514 0.06389327 -0.27877092 -0.15867916 0.7142967 0.40285572 -0.03258367 0.048498314
0.5522417 0.52176297 -0.0073777996 0.23319653 0.4660561 0.17274922 -0.02296019 -0.63794017
0.0031098423 0.23447038 0.070837304 0.91799587 -0.013008415 -0.045652155 0.2476083 -0.14086933
-0.6988252 0.050234325 0.1779559 0.08778015 -0.0016988213 0.06407627 0.0038659275 0.014531147
0.096062705 -0.5733319 -0.017791282 0.07126015 -0.07519595 -0.033154223 -0.34770745 -0.095561564
-0.0006072819 -0.050532352 0.27706742 0.17948511 -0.1897375 -0.01019206 0.46123955 0.23460302
0.025251273 -0.22164172 -0.013512267 0.03356197 -0.45728937 -0.7558113 -0.0234538 0.02072499
-0.16654974 -0.18654639 0.0358955 0.086773105 0.16464563 0.1358929 0.26296902 -0.0031363857
-0.026272016 0.4305978 0.051273696 0.036531013 0.026026143 -0.013918329 0.30934805 -0.12754832
0.08712926 0.05940611 -0.0052059274 0.0007222791 -0.046438206 -0.4909333 -0.1247241 0.07666374
0.20058241 0.002830908 0.6535409 0.00028584697 -0.72309244 0.6654124 -0.082663216 -0.043182015
-1.1917616 -0.08513967 0.08851776 0.45109454 0.27882913 0.019076524 0.1839357 0.04189329

advantage_stream.0.bias f4 [64]
00000000: e7df 763e e1c4 6a3e 7a82 05be 834f e33d
00000010: 7470 de3d f799 6f3d 73fa 8bbd 7cce 043d
00000020: 525c 953d d9e7 d4bc 0f34 aa3d 92c6 eb3d
00000030: 67e0 b0bd dcfa 173e 7ad1 e0bd 552a dabc
00000040: f89c 623d e843 6d3e d0ed e7bb a9a0 703e
00000050: 8355 3cbd 6624 163d fb55 23bd 56d3 933e
00000060: 3756 723e 109b debc 306f 06be eafc 8e3e
00000070: 4484 84bd 7c96 aabd 9ba8 b4bd 05dd 4e3e
00000080: a89b bb3d e1f6 25be 269c 0fbd 021c c8bc
00000090: f709 e83c 9ec3 a13d 4613 c9bd 2d6d 653d
000000a0: 9b67 10be a3ca 203d cde7 a1bd 4234 083e
000000b0: 2cde a0bc 71ea 1cbd 3d8d 98bd 1935 e13c
000000c0: f21c 9c3d ed44 d33d ffc7 a53b f8f0 cf3d
000000d0: 0c56 c83d 13a5 8f3e 0b13 98bc fcbf a73e
000000e0: adc6 623e ca62 f73d 8f5d 2b3e 45d6 763e
000000f0: 8080 f13d 9afe 19be 6958 6e3e ac89 9b3d
0.2410885 0.22926666 -0.13038054 0.1109915 0.108612925 0.05849644 -0.06834879 0.03242348
0.07292999 -0.02598946 0.08310711 0.11512484 -0.08636551 0.14841789 -0.109774545 -0.026631514
0.05532548 0.23170435 -0.00707791 0.23498787 -0.045979988 0.036655806 -0.03987692 0.28872174
0.23665701 -0.027173549 -0.13128352 0.27927333 -0.0647054 -0.08329484 -0.088212214 0.202015
0.091605484 -0.16207458 -0.035061024 -0.024427418 0.028325064 0.07898639 -0.09818129 0.05601232
-0.14102022 0.03925575 -0.079055406 0.13301185 -0.01963719 -0.03830952 -0.07448814 0.02749114
0.076227084 0.10315881 0.005059242 0.10153383 0.09782037 0.2805563 -0.018563768 0.3276366
0.22146101 0.120793894 0.16734909 0.24105175 0.117920876 -0.15038529 0.23275913 0.07594618

advantage_stream.2.weight f4 [5, 64]
00000000: 9f36 4b3e 9ff0 7d3f 6fb6 323e 8d93 88bf
00000010: d922 3abf 0884 e73f 9a91 eabd 7cf2 c5bd
00000020: dc6c 193e ac2a 23bf 816f a6bf b472 dc3e
00000030: c937 c7be a7bc bfbf 8487 97bd 93c7 e13d
00000040: 6a95 4f3e db88 153f 69b9 013d 49df aa3e
00000050: 30f4 d53d 943f ce3d 73fd 8a3f dd46 adbd
00000060: 20b2 063f be26 ad3d fe63 37bd c625 acbf
00000070: 3bbb 023d dd59 c7bd b566 e8bf 1d4e d3bf
00000080: 6ddf f63e aeee b63d ae2e 653c 42f8 0f3f
00000090: 4d91 963e 1cd0 c03d 2797 5e3d c302 33bd
000000a0: 1afa ac3e aec7 d23c 8e50 993d 5685 f3bf
000000b0: 55c3 473d 07dd d33d 3263 03be 6bdc 14bf
000000c0: cd81 9abf 0a25 5abe 4c0a b5bd 5ea2 52bf
000000d0: 0763 b1be 9c35 bb3e 2e92 c4be f5a6 10c0
000000e0: 2388 d6bf dd61 0bbf 49d8 083d a2f2 a13f
000000f0: 983b 8f3f d904 103e 315f dabe b545 c7be
00000100: efab cfbe 15fc 88bf 4c2d bc3d 19ff 323f
00000110: 21dc 2c3f 13d0 bc3d 625b 83bd 3a2f e1bd
00000120: 052c a03f 065a 2e3f a137 fa3d cda3 443f
00000130: 0bea 5fbe 7b79 c13e a12c 3b3d be10 bf3d
00000140: 53b3 d4bf d79a 71bd d14c a63d 266d dbbd
00000150: 29b2 44bc 0c35 b6bd 9908 41bf 5d25 443e
00000160: bc3d 0f3f bc5b 64bd 252f 23bd cb13 8b3f
00000170: bc32 2bbb 582e 4bbc 523b ec3d 6f76 2d3f
00000180: 176f 493d 8b6f 623d 25a9 db3a 4122 a23e
00000190: 9985 83bc 303e 193e 485b 92bd 7212 4f3d
000001a0: 200d 603c 2f94 49bd 901c b0bd b970 583f
000001b0: eda1 2c3d 5e09 ca3d a8ce 91bd 4b3a 5a3e
000001c0: a68e d83e 25e9 b83e 4c39 6d3d b306 543f
000001d0: 4a60 b63d 9f1a 133e edad 98bd 5516 403f
000001e0: 7fbb c03e 378c 26bf c0da 18bf 8c70 6fbd
000001f0: 9241 9abf f704 24bf 8374 1e3f c02e afbd
00000200: 2cd4 7e3f b34b 623f 5875 a4be 3b0b 603f
00000210: 0667 f2be 79b6 8ebe ae26 913c 9f89 5dbd
00000220: 8960 733f 29bf 55bf 32bd 8c3f a0c4 4cbf
00000230: 9802 633f 18b1 b93e 3e9d 87bd f92a 00be
00000240: 399b 1a3f d760 59bf f1cc 81bc faa2 083f
00000250: 3115 bb3d c180 36bf a695 c93d e45d 3e3f
00000260: c334 aebf 42f1 95bd f895 533d c331 e2be
00000270: 8fb0 253d 081a a63c 6bc8 703f b9e3 853e
00000280: 0eaa 7a3f e5d2 ab3d a070 13bd 3afb 403e
00000290: 8dfc 81be bc6b cbbd 32d5 0c3d 49fb 4c3d
000002a0: 5bf2 95be 6207 bc3d 7677 d33d d94a 2d3f
000002b0: c523 183d 495c e03d 5ef0 c1bc 8397 723e
000002c0: 8546 7c3f 642b c23d b9eb e8bd 16d5 f93e
000002d0: 3e0a 13bf 85d1 49bf 63ed 8f3f b929 403f
000002e0: 110f 1e3f 1910 8d3f 4391 873e 7c12 c5bf
000002f0: 4b79 393f 01c9 753f e34c 9fbf ca7f b83e
00000300: f858 04c0 63e9 a8bf fe00 603e e860 63bf
00000310: f8d9 1e3f 387c ddbf 16d8 f7bd b7d3 a5bd
00000320: 18a8 92be fbb2 0a3f 673c 6a3f 930c 0a3e
00000330: 9832 e9be e827 0b3f 2ce0 75bc afd7 c13c
00000340: 008a e13d bfa1 323f 5500 9a3d 1119 e8bd
00000350: 85d7 34bd e63c 093f b749 16bf 4ad1 92bf
00000360: 0c07 a73e 9726 e7bc 59a3 58bd 8c4e fdbe
00000370: 3795 a5bd df90 1abd 598f 0a3f e2cc 543f
00000380: 6b29 7ebf 0c41 d13b 89ed 69bd 847a ccbf
00000390: f456 42bb 1297 00bf 3cc7 c73d 15ff dbbc
000003a0: 8174 c03e a056 7bbb b497 5abb e47c bb3f
000003b0: d10e cdbd 6145 953d 633e 2dbc f2db 99bf
000003c0: 834b 363f ba85 52be 93b6 eb3d f9d2 95bf
000003d0: 35f2 c43e 70c3 3c3f a8ac 19bf bfd7 813f
000003e0: 24b7 413e eb92 0e3f 001f 99be f3e4 eebe
000003f0: 4572 2dbe f859 d2bd f807 8b3f 1bd3 223f
0.19845055 0.99195284 0.17452405 -1.0670029 -0.72709423 1.8087168 -0.114535525 -0.09665391
0.14982933 -0.6373699 -1.3002778 0.43056262 -0.38909748 -1.4979447 -0.073988944 0.11024394
0.2027184 0.5841195 0.03167096 0.33373478 0.10446966 0.1007072 1.0858597 -0.08460782
0.5261555 0.08454655 -0.044773094 -1.3449028 0.03191684 -0.09733937 -1.8156344 -1.6508213
0.48217335 0.08932243 0.01398818 0.56238186 0.2940773 0.09414694 0.05434337 -0.043703806
0.33784562 0.02572998 0.07486068 -1.9025066 0.048770268 0.10344892 -0.12830809 -0.5814883
-1.2070862 -0.21303192 -0.088398546 -0.82279 -0.34645864 0.36564338 -0.38392776 -2.2601902
-1.6760296 -0.544462 0.03340939 1.2652171 1.1190062 0.14064349 -0.4265075 -0.3892037
-0.40560862 -1.0701929 0.09188327 0.699205 0.6752339 0.092193745 -0.06413914 -0.10995336
1.2513434 0.68106115 0.122176416 0.7681244 -0.21866624 0.37787995 0.04569686 0.09329365
-1.6617225 -0.058985557 0.0812012 -0.10714178 -0.012005367 -0.08896837 -0.75403744 0.19154878
0.55953574 -0.055751547 -0.039839882 1.0865415 -0.002612277 -0.012401186 0.11534752 0.6775884
0.04917821 0.055282157 0.0016758783 0.3166676 -0.016054915 0.14965129 -0.07146317 0.0505547
0.013675004 -0.049213585 -0.08599198 0.84547 0.042146612 0.09865068 -0.07119495 0.213113
0.42296332 0.36115375 0.05791597 0.8282272 0.089050844 0.14365624 -0.07455049 0.75034076
0.37643048 -0.650577 -0.59708786 -0.058456942 -1.205126 -0.64070076 0.6189653 -0.08553839
0.995425 0.8839676 -0.32120776 0.87517136 -0.47344226 -0.2787359 0.01771864 -0.054086324
0.95069176 -0.8349481 1.0995238 -0.79987526 0.8867583 0.36267924 -0.066217884 -0.12516393
0.603931 -0.8491339 -0.015844794 0.5337368 0.09134901 -0.7129021 0.09842996 0.74362016
-1.3609852 -0.07321407 0.051656693 -0.4417859 0.040451583 0.020276085 0.94055814 0.261503
0.9791573 0.08389834 -0.03599608 0.18845835 -0.25387993 -0.09932658 0.034383006 0.05004433
-0.29286465 0.09181096 0.1032552 0.67692333 0.037143487 0.10955102 -0.023674186 0.2369061
0.98545104 0.09480932 -0.113730855 0.48795384 -0.57437503 -0.78835326 1.124432 0.75063664
0.6174174 1.1020538 0.26478013 -1.5396266 0.72450703 0.9600983 -1.2445339 0.36034995
-2.0679302 -1.3196224 0.21875378 -0.8881974 0.62051344 -1.7303534 -0.12101762 -0.08097022
-0.2864387 0.5417935 0.91498417 0.13481359 -0.45546412 0.5435777 -0.01500706 0.023662416
0.110126495 0.69778055 0.075195946 -0.11332906 -0.044150848 0.5360855 -0.5870623 -1.147012
0.32622564 -0.028216643 -0.052890155 -0.4947399 -0.08085101 -0.037735816 0.5412498 0.83125126
-0.9928195 0.006385928 -0.057111297 -1.5974889 -0.002965388 -0.50230515 0.09754798 -0.026855031
0.37588885 -0.0038351193 -0.0033354582 1.4647489 -0.10012592 0.072886236 -0.010573956 -1.2020247
0.7120897 -0.20558825 0.11509433 -1.1705009 0.3846604 0.73735714 -0.6002908 1.0143965
0.18917519 0.5569293 -0.29906464 -0.4665905 -0.16938122 -0.102710664 1.0861807 0.6360337

advantage_stream.2.bias f4 [5]
00000000: 2207 533e ad53 12bd e798 583d 8185 8ebe
00000010: 0e8c 3b3e
0.2060819 -0.03572433 0.052880194 -0.2783623 0.18315145
